best_model.pth (torch, 446363 bytes, 210 tensors)

sigma_S.singlePeriodNets.0.linears.0.weight f4 [64, 3]
0.13378504 -0.094949976 0.059988797 0.21799895 0.25698295 -0.17978786 -0.08675766 -0.122344315
-0.31499392 0.24365157 0.12015612 0.13727166 0.088424645 0.1459847 0.23804906 -0.19625251
0.0014518321 0.06654733 -0.34689245 -0.16415164 -0.08816172 0.18207471 0.03228874 -0.12575538
-0.016037043 -0.2051073 0.22416219 -0.050106447 -0.15996273 -0.05539691 0.11056698 -0.14096761
-0.31502992 0.23295103 0.018080316 0.0959041 0.12705709 0.42185003 0.062844485 0.021762967
-0.24168414 -0.34082565 0.1063877 -0.2590434 -0.0066895834 -0.17229594 0.21989937 -0.03754208
0.14834796 -0.14758766 -0.17804165 0.11466247 0.0641975 0.00899476 -0.063896306 0.24784823
-0.21176438 0.03517231 0.19807048 0.08653019 -0.070924476 0.2639491 0.16005196 -0.18153487
0.00027154502 -0.08316751 0.17917916 -0.037382875 -0.012339435 -0.16046986 0.26669767 -0.0892817
-0.034768645 -0.058549635 0.060218755 0.22989446 -0.13005896 -0.0004305259 0.17175251 -0.2932898
-0.10093388 -0.2297747 -0.22759415 0.0014012456 0.0628119 -0.3866795 0.063817576 0.05027138
0.08076977 0.118643835 -0.036868546 -0.17102519 -0.06548738 -0.0899691 -0.05217272 -0.06356973
-0.020186536 -0.063347116 0.10971018 -0.18404719 0.0037479056 -0.107666925 -0.08381961 0.4271688
-0.19878617 0.21181034 0.24778914 -0.13567515 -0.060198497 -0.08633227 0.19634113 -0.17748174
0.015124959 -0.076554485 0.2539866 0.051910426 0.35612288 0.4261438 0.17043859 0.1056971
-0.04480236 0.24105763 -0.15098917 -0.050116934 -0.079045154 0.15858833 0.0613823 0.2328435
-0.08569095 -0.111627504 -0.040838555 -0.07982041 0.15888166 -0.19116868 -0.12621899 0.1550109
-0.16691124 -0.041843623 -0.13465968 0.1954316 -0.23649612 -0.27091047 -0.059099633 -0.18326654
0.036185093 0.021537168 -0.43490294 -0.021568444 -0.14178933 0.07420123 0.24628142 0.26132444
0.06300128 -0.058520015 0.17961389 0.102819204 0.26404053 -0.14870167 0.09902254 0.20998564
-0.07418741 0.27267545 0.14940405 -0.10022856 -0.12121528 0.05995891 0.24007736 0.08684036
0.09483339 0.008839791 -0.12685226 0.23486215 -0.37908548 0.28558308 -0.4284501 0.24265498
-0.10266339 -0.20109911 0.247547 0.075131916 -0.1333222 -0.2364352 0.10308328 -0.098970875
0.113045424 -0.021451227 -0.068174936 -0.23888052 0.050386224 -0.024189875 0.047133394 0.41516945
00000000: f2fe 083e 2275 c2bd d0b6 753d 1e3b 5f3e
00000010: 4593 833e 4f1a 38be 00ae b1bd a88f fabd
00000020: e246 a1be cc7f 793e 6914 f63d f190 0c3e
00000030: fb17 b53d 037d 153e 22c3 733e 6bf6 48be
00000040: 674b be3a f749 883d e39b b1be 5e17 28be
00000050: 228e b4bd cb71 3a3e 3341 043d 05c6 00be
00000060: 1e60 83bc a607 52be c68a 653e 6b3c 4dbd
00000070: 45cd 23be dfe7 62bd f170 e23d d059 10be
00000080: 9a4b a1be b78a 6e3e 2c1d 943c 5e69 c43d
00000090: 411b 023e bafc d73e 9cb4 803d 4048 b23c
000000a0: 0c7c 77be b380 aebe cbe1 d93d 56a1 84be
000000b0: 4b34 dbbb 596e 30be 4d2d 613e b9c5 19bd
000000c0: 87e8 173e 3821 17be 8d50 36be 28d4 ea3d
000000d0: fb79 833d c25e 133c 11dc 82bd edcb 7d3e
000000e0: c3d8 58be d710 103d fdd2 4a3e be36 b13d
000000f0: da40 91bd 5624 873e a9e4 233e 47e4 39be
00000100: 285e 8e39 ba53 aabd be7a 373e c91e 19bd
00000110: 572b 4abc 3652 24be 998c 883e 53d9 b6bd
00000120: 9169 0ebd bed1 6fbd f1a7 763d 7469 6b3e
00000130: 2d2e 05be 35b8 e1b9 e4df 2f3e 152a 96be
00000140: 6cb6 cebd 0f4a 6bbe 710e 69be 00aa b73a
00000150: 87a3 803d dbfa c5be cab2 823d 5de9 4d3d
00000160: 9f6a a53d 8afb f23d 7903 17bd 3a21 2fbe
00000170: 3f1e 86bd b841 b8bd 10b3 55bd d930 82bd
00000180: 3c5e a5bc 22bc 81bd bbaf e03d de76 3cbe
00000190: 6c9f 753b 7a80 dcbd 9ea9 abbd deb5 da3e
000001a0: 9a8e 4bbe cfe4 583e 70bc 7d3e 6dee 0abe
000001b0: b392 76bd f9ce b0bd a60d 493e c6bd 35be
000001c0: adce 773c 99c8 9cbd 880a 823e 07a0 543d
000001d0: bd55 b63e 852f da3e 7487 2e3e b977 d83d
000001e0: ae82 37bd d0d7 763e e89c 1abe 6a47 4dbd
000001f0: 6de2 a1bd fb64 223e 026c 7b3d 876e 6e3e
00000200: bd7e afbd f69c e4bd 5446 27bd e278 a3bd
00000210: e0b1 223e b9c1 43be 8d3f 01be 2dbb 1e3e
00000220: c8ea 2abe 3864 2bbd 3ae4 09be 391f 483e
00000230: 0a2c 72be c7b4 8abe 7512 72bd 39aa 3bbe
00000240: d236 143d b76e b03c 99ab debe 4eb0 b0bc
00000250: 3931 11be d1f6 973d 3231 7c3e 51cc 853e
00000260: d106 813d afb2 6fbd b4ec 373e e092 d23d
00000270: 5230 873e 4045 18be 54cc ca3d 7a06 573e
00000280: 92ef 97bd 1e9c 8b3e 60fd 183e a244 cdbd
00000290: b73f f8bd 7997 753d d7d6 753e 5cd9 b13d
000002a0: 0238 c23d c5d4 103c 8fe5 01be b47f 703e
000002b0: 7e17 c2be f237 923e d05d dbbe 8c7a 783e
000002c0: 2f41 d2bd edec 4dbe f67c 7d3e c3de 993d
000002d0: 9d85 08be 121c 72be 541d d33d 3eb1 cabd
000002e0: 5c84 e73d 7cba afbc 4d9f 8bbd 189d 74be
000002f0: c961 4e3d d829 c6bc f20e 413d 1791 d43e

sigma_S.singlePeriodNets.0.linears.0.bias f4 [64]
-0.17120788 -0.5529673 -0.24177709 0.29527667 0.3536646 -0.586283 0.3154481 -0.14834619
0.12857777 0.46275985 0.15287435 -0.48146453 0.09962228 0.27851754 -0.5279208 -0.4626357
-0.23053643 -0.3560302 -0.07338948 -0.30467176 0.3026779 0.4346748 -0.5053803 0.027236357
-0.3310779 -0.13579962 0.4273243 -0.14642441 0.18105406 0.044223387 0.12032443 0.016282141
0.20555818 0.51133287 -0.21775939 -0.26790676 0.52397025 0.32706156 -0.022811472 0.3670843
0.16442408 -0.47178948 -0.5187828 0.4279039 -0.4843427 -0.521106 0.14552343 0.17251861
0.49699217 -0.50822145 -0.14398521 -0.3541587 -0.22207943 0.24656753 0.4754988 -0.3052997
-0.09853149 0.116383135 -0.42765462 0.23016429 0.013424814 -0.1996661 0.18507332 -0.38642094
00000000: 1e51 2fbe 448f 0dbf 6a94 77be 812e 973e
00000010: 8713 b53e a516 16bf 6a82 a13e 10e8 17be
00000020: e4a9 033e dcee ec3e 188b 1c3e 8582 f6be
00000030: c406 cc3d da99 8e3e d125 07bf 96de ecbe
00000040: be11 6cbe 9749 b6be 394d 96bd f0fd 9bbe
00000050: 99f8 9a3e b28d de3e 9a60 01bf c81e df3c
00000060: 0b83 a9be 0e0f 0bbe 40ca da3e 48f0 15be
00000070: 3c66 393e 9523 353d a86c f63d 2062 853c
00000080: d87d 523e b6e6 023f 51fc 5ebe 132b 89be
00000090: ea22 063f 9d74 a73e 20df babc 79f2 bb3e
000000a0: c95e 283e 648e f1be f3ce 04bf 3816 db3e
000000b0: c4fb f7be 3467 05bf 1804 153e b8a8 303e
000000c0: c275 fe3e cd1a 02bf dc70 13be 4a54 b5be
000000d0: ca68 63be 337c 7c3e 9474 f33e 3e50 9cbe
000000e0: e1ca c9bd 485a ee3d 8cf5 dabe 30b0 6b3e
000000f0: c0f3 5b3c 4575 4cbe dc83 3d3e f7d8 c5be

sigma_S.singlePeriodNets.0.linears.1.weight f4 [64, 64]
-0.16758291 0.004201703 0.1603793 -0.17940927 -0.22852562 -0.042733274 -0.05354198 0.22296508
-0.07421723 0.085498676 -0.23776196 0.061322708 0.03662518 -0.0852481 0.071131855 0.15075956
-0.1527819 -0.042480804 0.07792326 0.07280257 -0.117268264 0.29643658 0.06357952 0.17521544
0.27941167 0.24985553 -0.15220393 -0.13680193 -0.022781532 0.210999 -0.17539139 -0.039705545
0.18244308 0.0077084573 -0.18273593 -0.09461352 -0.05520266 -0.0919945 0.2497816 -0.0920705
0.04388869 0.23036772 -0.20177221 0.18420663 -0.098026 0.117069334 0.030229548 -0.10012301
0.26846287 -0.06408907 -0.011324075 0.18642068 -0.01123368 -0.19131745 0.06756061 -0.17507656
-0.07192391 -0.082509995 -0.19889781 0.026628943 0.0037841212 -0.07429497 0.03321167 -0.079026654
-0.041346982 -0.034641616 -0.100194365 0.047620747 0.070617445 0.28163213 -0.007969254 0.24724455
-0.23733403 0.10604303 -0.0634282 -0.0906591 -0.026917094 0.02058995 0.106698 -0.056481685
-0.250087 0.061922025 0.12776527 0.09897732 0.24948108 -0.104319066 0.046805076 -0.09859864
0.283466 -0.036478307 -0.09974867 -0.14755669 0.12715502 -0.0592927 0.10880257 -0.2612967
-0.064671434 0.01784848 0.000885717 0.09972198 0.011615148 0.028332071 -0.18907943 0.012660614
-0.11571142 -0.13526627 -0.034226906 0.089481264 -0.071440466 0.06316285 0.054698456 -0.029248249
-0.008136681 0.24188973 -0.15688077 0.2752447 0.22338511 0.116945155 -0.10463833 -0.0035003885
0.023507668 0.05479459 0.088226214 -0.05403952 -0.2549704 0.18411744 -0.20807578 -0.0056986217
-0.037969075 0.00020115865 -0.01674327 0.015783895 -0.19640036 -0.033688594 0.027421813 0.1883054
-0.12032011 0.023091681 0.08713803 -0.0996569 -0.14458056 0.22280145 -0.12911771 -0.07933449
0.104121834 -0.058791753 0.20326926 -0.019053483 -0.073011175 0.050070282 0.14471345 0.15531737
0.075161174 -0.036070857 -0.22643922 -0.01113244 -0.1271514 0.011072982 0.11108058 -0.23988856
0.038445838 -0.12141104 0.13881911 -0.082162805 -0.18173245 -0.20646507 -0.030032609 0.004707236
-0.15912439 0.18181697 -0.11694172 0.051004834 -0.07938873 0.07346845 -0.03385685 -0.0527029
-0.16507475 -0.09254644 0.03797282 -0.008023235 0.06404264 0.2068451 0.14350139 -0.022026427
-0.23138022 -0.16496135 0.06421304 0.0418 0.1467919 0.035406835 -0.07357767 -0.033174586
0.20552932 0.091996126 0.09905279 0.19051962 0.0071209054 -0.049295403 0.20765105 0.049653698
-0.042969998 -0.049903385 0.10115866 0.057762805 0.07456253 0.09067814 0.11204814 0.006808879
0.0821345 0.06918681 -0.105537355 0.18409126 0.15177202 0.04998404 0.17909482 -0.25775427
0.1658196 0.07257622 -0.061305374 0.09403121 -0.104079 -0.22779329 0.0015082494 0.034492485
0.16408333 0.11852015 0.08940247 -0.024367502 -0.12577617 -0.22664638 -0.01770452 0.11761249
-0.060666703 -0.13867772 0.10990886 0.04106801 -0.16035458 -0.1978672 0.023528345 0.18314295
0.14489843 -0.29403794 -0.25843757 0.16894057 0.090034276 0.06473794 0.08478199 0.107316695
-0.058293257 -0.034586746 0.1497037 0.0497 -0.1683681 -0.2231407 0.14677668 -0.18368585
00000000: db9a 2bbe 70ae 893b 793a 243e 10b7 37be
00000010: 9f02 6abe 1609 2fbd d64e 5bbd f550 643e
00000020: 34ff 97bd ee19 af3d df77 73be 852d 7b3d
00000030: 4904 163d 8e96 aebd 94ad 913d b760 1a3e
00000040: dc72 1cbe 5a00 2ebd 3b96 9f3d 8419 953d
00000050: 582a f0bd 89c6 973e fb35 823d ad6b 333e
00000060: 0c0f 8f3e 21da 7f3e 59db 1bbe ce15 0cbe
00000070: 56a0 babc 1f10 583e cd99 33be 48a2 22bd
00000080: 5cd2 3a3e 3a97 fc3b 211f 3bbe bcc4 c1bd
00000090: 2f1c 62bd 9d67 bcbd bfc6 7f3e 758f bcbd
000000a0: a1c4 333d 84e5 6b3e 609d 4ebe aaa0 3c3e
000000b0: dbc1 c8bd 0cc2 ef3d f5a3 f73c 4b0d cdbd
000000c0: f773 893e 2141 83bd 9d88 39bc 10e5 3e3e
000000d0: 780d 38bc b9e8 43be 385d 8a3d 4547 33be
000000e0: d84c 93bd 00fb a8bd deab 4bbe f124 da3c
000000f0: 05ff 773b f627 98bd f608 083d bad8 a1bd
00000100: 745b 29bd 5ee4 0dbd b432 cdbd f90d 433d
00000110: e19f 903d 1632 903e 7991 02bc ad2d 7d3e
00000120: b107 73be 172d d93d a5e6 81bd 7aab b9bd
00000130: 3d81 dcbc 41ac a83c 7b84 da3d 5759 67bd
00000140: 670b 80be f3a1 7d3d e6d4 023e 9fb4 ca3d
00000150: f877 7f3e 3ca5 d5bd aeb6 3f3d 15ee c9bd
00000160: 7522 913e 476a 15bd 0849 ccbd 1a19 17be
00000170: ed34 023e e7dc 72bd e2d3 de3d aec8 85be
00000180: 7572 84bd fa36 923c 762f 683a 0a3b cc3d
00000190: 764d 3e3c a918 e83c 0a9e 41be 776e 4f3c
000001a0: 1cfa ecbd 3e83 0abe 8331 0cbd f441 b73d
000001b0: 614f 92bd 865b 813d 7d0b 603d 069a efbc
000001c0: b74f 05bc f1b1 773e 5aa5 20be e0ec 8c3e
000001d0: 11bf 643e f180 ef3d 9f4c d6bd c666 65bb
000001e0: 2793 c03c 4b70 603d f2af b43d 8b58 5dbd
000001f0: 7b8b 82be 4889 3c3e d111 55be 81bb babb
00000200: 7685 1bbd 1dee 5239 2f29 89bc 3a4d 813c
00000210: 2d1d 49be 0dfd 09bd b6a3 e03c 21d3 403e
00000220: 646a f6bd c42a bd3c 6c75 b23d eb18 ccbd
00000230: ed0c 14be 1026 643e 6f37 04be 1f7a a2bd
00000240: d43d d53d 9fcf 70bd d125 503e 0d16 9cbc
00000250: e286 95bd 7f16 4d3d c32f 143e 840b 1f3e
00000260: 1aee 993d 09bf 13bd afdf 67be d664 36bc
00000270: fa33 02be 746b 353c 377e e33d 59a5 75be
00000280: 6279 1d3d 5aa6 f8bd 9926 0e3e f944 a8bd
00000290: 1218 3abe 946b 53be f206 f6bc 283f 9a3b
000002a0: 81f1 22be 3a2e 3a3e 247f efbd 72ea 503d
000002b0: 8f96 a2bd a076 963d 7bad 0abd ffde 57bd
000002c0: 5b09 29be fd88 bdbd 6389 1b3d e373 03bc
000002d0: ca28 833d 34cf 533e 07f2 123e c470 b4bc
000002e0: f0ee 6cbe a1eb 28be 2082 833d 7a36 2b3d
000002f0: 9e50 163e c206 113d e4af 96bd 13e2 07bd
00000300: 4776 523e 7768 bc3d 30dc ca3d 9317 433e
00000310: 7c56 e93b fae9 49bd 7aa2 543e ad61 4b3d
00000320: 4f01 30bd 7e67 4cbd 462c cf3d b198 6c3d
00000330: 3db4 983d 76b5 b93d 7f79 e53d 041d df3b
00000340: 2236 a83d d0b1 8d3d f823 d8bd 6b82 3c3e
00000350: 206a 1b3e 11bc 4c3d a264 373e 5ef8 83be
00000360: 9dcc 293e d7a2 943d 581b 7bbd 6f93 c03d
00000370: 5f27 d5bd a542 69be 74b0 c53a fe47 0d3d
00000380: 7605 283e b1ba f23d a418 b73d 5b9e c7bc
00000390: 78cb 00be fd15 68be 1209 91bc d1de f03d
000003a0: a67d 78bd 8801 0ebe e517 e13d ee36 283d
000003b0: fe33 24be b39d 4abe 84be c03c d389 3b3e
000003c0: 4160 143e 248c 96be ee51 84be c2fe 2c3e
000003d0: e463 b83d 5395 843d 2ea2 ad3d dbc8 db3d
000003e0: e9c4 6ebd d5aa 0dbd ed4b 193e 3a92 4b3d
000003f0: b068 2cbe ff7e 64be a04c 163e 2518 3cbe

sigma_S.singlePeriodNets.0.linears.1.bias f4 [64]
-0.03323905 -0.044508766 -0.12848175 0.09699077 0.07081323 -0.042544138 -0.025533516 -0.07375826
-0.08517982 0.05794392 0.026569244 -0.09226119 0.0492469 0.006839631 -0.083840646 0.020039521
-0.055861693 0.11285695 0.010436104 0.0076863584 0.10904099 -0.050047338 -0.04310691 -0.0875552
0.0846224 -0.008473881 0.018923055 0.07852153 -0.016491372 0.034566283 -0.07638996 0.07030885
-0.007326618 -0.07332595 -0.039501406 0.062585585 -0.038480617 -0.08979889 -0.11429571 0.07411847
-0.015076589 0.0609947 -0.0595477 -0.06189599 -0.059961513 -0.10274887 0.072107166 0.11077356
0.11774065 0.12735097 -0.010079556 0.008169343 -0.111320086 0.037500158 -0.024483427 -0.009698562
-0.005769556 0.026885424 -0.0998383 0.017065568 -0.07847581 0.07402033 -0.017952332 0.07177738
00000000: ac25 08bd d34e 36bd b890 03be 19a3 c63d
00000010: 8706 913d c342 2ebd aa2b d1bc 920e 97bd
00000020: c272 aebd 9b56 6d3d bea7 d93c 6ff3 bcbd
00000030: 1eb7 493d fc1e e03b a5b4 abbd ec29 a43c
00000040: 3bcf 64bd 8b21 e73d 31fc 2a3c d9dd fb3b
00000050: e250 df3d 70fe 4cbd df90 30bd 2450 b3bd
00000060: 824e ad3d 08d6 0abc 8604 9b3c e5cf a03d
00000070: ea18 87bc 6095 0d3d 5772 9cbd 16fe 8f3d
00000080: 2014 f0bb ea2b 96bd 3acc 21bd df2c 803d
00000090: da9d 1dbd 7be8 b7bd df13 eabd 6dcb 973d
000000a0: cc03 77bc 94d5 793d 4ae8 73bd a686 7dbd
000000b0: 349a 75bd 006e d2bd ecac 933d 40dd e23d
000000c0: 0322 f13d 4b68 023e b924 25bc b5d8 053c
000000d0: c9fb e3bd c499 193d 7891 c8bc b8e6 1ebc
000000e0: 8b0e bdbb d23e dc3c 0678 ccbd 17cd 8b3c
000000f0: edb7 a0bd f997 973d c510 93bc 0500 933d

sigma_S.singlePeriodNets.0.linears.2.weight f4 [1, 64]
0.19490981 -0.0653375 -0.11689657 0.005904145 -0.14930683 0.17088258 0.082602754 0.21969342
-0.17088483 0.29519805 -0.18038417 0.058193173 0.14085756 -0.21746498 0.02891079 -0.09000038
-0.07718325 -0.1799481 0.1826036 0.0719001 0.074550614 -0.004662131 0.10552119 -0.12797642
0.10390875 -0.010162799 0.31096876 0.016946474 0.11611106 0.040699348 0.07955678 -0.09389774
0.26139265 0.15515102 0.115641296 0.3927311 0.2297261 0.12957695 0.012081146 0.117418535
-0.26552293 0.019778298 0.2121166 -0.10933143 0.017090578 -0.015102168 0.046985753 -0.1551385
-0.040770203 0.18041879 -0.22897781 0.1314327 0.142841 -0.08559096 0.18215308 -0.13685335
-0.15539041 -0.10017456 0.05333465 0.2406708 -0.11617278 -0.0069505484 0.39887452 0.09158526
00000000: 7096 473e abcf 85bd 7867 efbd 8f77 c13b
00000010: e4e3 18be d8fb 2e3e a22b a93d 50f7 603e
00000020: 6ffc 2ebe 3324 973e a1b6 38be f75b 6e3d
00000030: f73c 103e 24af 5ebe 52d6 ec3c 1f52 b8bd
00000040: 4012 9ebd 5144 38be 70fc 3a3e 5c40 933d
00000050: fead 983d cac4 98bb 7e1b d83d 400c 03be
00000060: 1cce d43d de81 26bc 4c37 9f3e 55d3 8a3c
00000070: a3cb ed3d 5cb4 263d aaee a23d 754d c0bd
00000080: 42d5 853e e9df 1e3e 58d5 ec3d 0d14 c93e
00000090: 523d 6b3e d2af 043e 00f0 453c 2179 f03d
000000a0: 9ff2 87be 1906 a23c 1835 593e 28e9 dfbd
000000b0: 8a01 8c3c 156f 77bc 2274 403d a0dc 1ebe
000000c0: a8fe 26bd b4bf 383e 2979 6abe 4b96 063e
000000d0: e944 123e 504a afbd 5686 3a3e 4923 0cbe
000000e0: aa1e 1fbe 5228 cdbd 6f75 5a3d 6872 763e
000000f0: ffeb edbd 6dc1 e3bb 4839 cc3e 0e91 bb3d

sigma_S.singlePeriodNets.0.batchnorms.0.weight f4 [64]
1.0 0.9965708 1.0 0.9858366 0.98833096 0.9968971 1.0 1.0075858
1.0 1.0 1.0 1.006958 0.9972568 1.0 1.0 0.9960164
1.0 1.0132551 0.9974047 0.99538743 1.0128436 1.0082712 1.0 1.0016047
1.0 1.0 1.0 1.0 1.0 0.98966914 1.0 1.0
1.0 0.99915534 0.9954112 0.99369365 0.9743678 0.99605596 1.020967 0.97945976
0.99820524 1.0 1.0058112 1.0 1.0 1.0 0.9975582 1.0
0.9867942 1.0 1.0144104 0.99880844 1.0 1.0356144 1.0 1.0045216
0.988217 1.0 1.0037401 1.0098095 1.0 0.9978847 1.0 1.0140374
00000000: 0000 803f 441f 7f3f 0000 803f ca5f 7c3f
00000010: 4203 7d3f a634 7f3f 0000 803f 92f8 803f
00000020: 0000 803f 0000 803f 0000 803f 00e4 803f
00000030: 394c 7f3f 0000 803f 0000 803f eefa 7e3f
00000040: 0000 803f 58b2 813f ea55 7f3f b6d1 7e3f
00000050: dca4 813f 080f 813f 0000 803f 9534 803f
00000060: 0000 803f 0000 803f 0000 803f 0000 803f
00000070: 0000 803f f55a 7d3f 0000 803f 0000 803f
00000080: 0000 803f a5c8 7f3f 45d3 7e3f b562 7e3f
00000090: 2b70 793f 86fd 7e3f 0caf 823f e0bd 7a3f
000000a0: 618a 7f3f 0000 803f 6cbe 803f 0000 803f
000000b0: 0000 803f 0000 803f f95f 7f3f 0000 803f
000000c0: 8b9e 7c3f 0000 803f 33d8 813f e9b1 7f3f
000000d0: 0000 803f 038f 843f 0000 803f 2a94 803f
000000e0: cafb 7c3f 0000 803f 8e7a 803f 7041 813f
000000f0: 0000 803f 5f75 7f3f 0000 803f facb 813f

sigma_S.singlePeriodNets.0.batchnorms.0.bias f4 [64]
0.0024021822 -0.0080947485 -0.0034797755 0.0034546861 0.013539196 0.015248128 0.0095272595 0.008788869
-0.001453772 0.0003389751 0.008898979 -0.011842257 -0.007925778 0.003795606 -0.007177301 -0.0055445833
-0.00556218 0.009887006 -0.0045847776 -0.00527459 0.011610571 -0.003406294 0.004085163 0.0024619251
-0.0007267125 0.0024358688 -0.0074751484 0.0003254059 -0.0036689634 -0.00062588294 0.0019744607 -0.0050503532
0.004798257 5.823643e-05 -0.0076472005 -0.0016747756 -0.0045019016 -0.009366279 0.009917022 -0.0012701902
-0.0069317166 0.0020914366 0.0021470624 -0.0019630976 0.0053964043 0.0024760175 -0.012867456 0.0025171412
0.0136480285 -0.0037498642 -0.003975879 -0.0036669918 -0.014138213 0.0017250156 -0.007891652 -0.012432495
0.00016567239 -0.0029439554 0.0020119813 0.007494399 -0.0009255889 -0.0035487285 -0.015006062 -0.01247801
00000000: ee6d 1d3b d69f 04bc f20c 64bb 0468 623b
00000010: 81d3 5d3c 49d3 793c 3918 1c3c 30ff 0f3c
00000020: 7e8c beba 78b8 b139 06cd 113c 0706 42bc
00000030: 1fdb 01bc b4bf 783b 912f ebbb 56af b5bb
00000040: f342 b6bb 1cfd 213c e73b 96bb 78d6 acbb
00000050: 443a 3e3c 213c 5fbb d5dc 853b 4058 213b
00000060: da80 3eba 19a3 1f3b 17f2 f4bb 3e9b aa39
00000070: fe72 70bb 4b12 24ba f465 013b 6f7d a5bb
00000080: b23a 9d3b e442 7438 5e95 fabb 2584 dbba
00000090: b084 93bb 0575 19bc 017b 223c 837c a6ba
000000a0: 7423 e3bb 7c10 093b bbb5 0c3b 50a7 00bb
000000b0: 52d4 b03b ae44 223b 06d2 52bc 9ff6 243b
000000c0: fb9b 5f3c 48c0 75bb 1748 82bb ea51 70bb
000000d0: f7a3 67bc eb19 e23a fd4b 01bc aab1 4bbc
000000e0: 58b8 2d39 60ef 40bb 72db 033b 9393 f53b
000000f0: 38a3 72ba c991 68bb fcdb 75bc 9170 4cbc

sigma_S.singlePeriodNets.0.batchnorms.0.running_mean f4 [64]
0.0 25.48384 0.0 12.576766 15.210161 2.0335061e-05 0.0 3.159778
0.0 0.0 0.0 1.4614468 42.833294 0.0 0.0 21.702984
0.0 6.1845994 24.921038 19.763718 27.009962 0.37140733 0.0 26.918896
0.0 0.0 0.0 0.0 0.0 8.261431 0.0 0.0
0.0 0.7928159 42.909634 24.846853 6e-45 1.7691329 5.4111376 17.798944
24.49374 0.0 23.036774 0.0 0.0 0.0 19.804504 0.0
2.5881479 0.0 26.399933 17.814339 0.0 6e-45 0.0 24.021793
0.80328065 0.0 23.923569 25.207312 0.0 11.190591 0.0 4.468695
00000000: 0000 0000 e8de cb41 0000 0000 6f3a 4941
00000010: d25c 7341 3695 aa37 0000 0000 ce39 4a40
00000020: 0000 0000 0000 0000 0000 0000 b010 bb3f
00000030: 4b55 2b42 0000 0000 0000 0000 b69f ad41
00000040: 0000 0000 3de8 c540 495e c741 181c 9e41
00000050: 6714 d841 1a29 be3e 0000 0000 e659 d741
00000060: 0000 0000 0000 0000 0000 0000 0000 0000
00000070: 0000 0000 d22e 0441 0000 0000 0000 0000
00000080: 0000 0000 fcf5 4a3f 77a3 2b42 5bc6 c641
00000090: 0400 0000 f272 e23f 0a28 ad40 3d64 8e41
000000a0: 2ef3 c341 0000 0000 504b b841 0000 0000
000000b0: 0000 0000 0000 0000 a06f 9e41 0000 0000
000000c0: 37a4 2540 0000 0000 1033 d341 c483 8e41
000000d0: 0000 0000 0400 0000 0000 0000 a22c c041
000000e0: cda3 4d3f 0000 0000 7863 bf41 93a8 c941
000000f0: 0000 0000 a90c 3341 0000 0000 8dff 8e40

sigma_S.singlePeriodNets.0.batchnorms.0.running_var f4 [64]
6e-45 0.027500534 6e-45 0.010678409 0.022709968 5.3824183e-06 6e-45 0.0033943271
6e-45 6e-45 6e-45 0.0022061095 0.06890865 6e-45 6e-45 0.017529042
6e-45 0.0015906343 0.027923094 0.017514357 0.03467246 0.0012738971 6e-45 0.026074132
6e-45 6e-45 6e-45 6e-45 6e-45 0.006174548 6e-45 6e-45
6e-45 0.0023440851 0.06896736 0.023872897 6e-45 0.0012279388 0.029303996 0.014593516
0.02335408 6e-45 0.019994633 6e-45 6e-45 6e-45 0.022173723 6e-45
0.037078865 6e-45 0.027476987 0.01569328 6e-45 6e-45 6e-45 0.024645522
0.0031767283 6e-45 0.021991465 0.025409497 6e-45 0.004631106 6e-45 0.03883831
00000000: 0400 0000 cd48 e13c 0400 0000 7ef4 2e3c
00000010: 410a ba3c 9f9a b436 0400 0000 5c73 5e3b
00000020: 0400 0000 0400 0000 0400 0000 6094 103b
00000030: fa1f 8d3d 0400 0000 0400 0000 1199 8f3c
00000040: 0400 0000 d57c d03a f9be e43c 457a 8f3c
00000050: b604 0e3d e5f8 a63a 0400 0000 6b99 d53c
00000060: 0400 0000 0400 0000 0400 0000 0400 0000
00000070: 0400 0000 dd53 ca3b 0400 0000 0400 0000
00000080: 0400 0000 399f 193b c23e 8d3d 1891 c33c
00000090: 0400 0000 caf2 a03a ef0e f03c a419 6f3c
000000a0: 0e51 bf3c 0400 0000 c9cb a33c 0400 0000
000000b0: 0400 0000 0400 0000 aba5 b53c 0400 0000
000000c0: 02e0 173d 0400 0000 6b17 e13c 328f 803c
000000d0: 0400 0000 0400 0000 0400 0000 68e5 c93c
000000e0: a830 503b 0400 0000 7227 b43c 9427 d03c
000000f0: 0400 0000 88c0 973b 0400 0000 eb14 1f3d

sigma_S.singlePeriodNets.0.batchnorms.1.weight f4 [64]
0.9949347 1.0070193 0.99298227 0.9925764 0.9988393 1.000946 1.014041 1.017004
1.0046351 0.99738276 1.0031971 1.0022783 0.9822599 1.0018064 0.99930227 0.99735326
1.0051373 0.9921729 0.9874388 1.0107791 1.016135 0.9899878 0.99372107 1.014413
1.0080885 0.9896078 0.9994369 1.0020124 1.0009677 0.99638873 1.0262027 1.0001879
0.9886061 1.0043753 0.9976138 0.9982637 1.004289 0.9908579 0.9997395 1.0009336
1.0025041 1.0015635 1.0087872 0.9924488 0.9881051 0.99580806 0.9998617 1.0036076
0.98847985 0.9952753 0.98775995 1.0164404 0.998559 0.9972931 1.0013616 1.0040555
0.99254555 1.0034369 1.0116581 0.99768066 0.9954863 0.98857915 1.0073742 0.9934468
00000000: 0ab4 7e3f 02e6 803f 1634 7e3f 7d19 7e3f
00000010: efb3 7f3f 001f 803f 18cc 813f 302d 823f
00000020: e297 803f 7a54 7f3f c368 803f a84a 803f
00000030: 6375 7b3f 313b 803f 46d2 7f3f 8b52 7f3f
00000040: 57a8 803f 0bff 7d3f cac8 7c3f 3661 813f
00000050: b610 823f d76f 7d3f 8164 7e3f 49d8 813f
00000060: 0b09 813f f056 7d3f 19db 7f3f f141 803f
00000070: b61f 803f 5513 7f3f 9c5a 833f 2806 803f
00000080: 4a15 7d3f 5f8f 803f 9e63 7f3f 368e 7f3f
00000090: 8b8c 803f dda8 7d3f eeee 7f3f 981e 803f
000000a0: 0e52 803f 3c33 803f f01f 813f 2011 7e3f
000000b0: 75f4 7c3f 47ed 7e3f f0f6 7f3f 3776 803f
000000c0: 040d 7d3f 5dca 7e3f d6dd 7c3f b81a 823f
000000d0: 90a1 7f3f 9a4e 7f3f 9e2c 803f e484 803f
000000e0: 7717 7e3f 9f70 803f 037e 813f 0068 7f3f
000000f0: 31d8 7e3f 8613 7d3f a3f1 803f 8852 7e3f

sigma_S.singlePeriodNets.0.batchnorms.1.bias f4 [64]
0.0089152595 -0.014463618 -0.015022251 -0.005298038 -0.009376826 0.014252317 0.011939671 0.013003027
-0.009902547 0.015379732 -0.012132751 0.011416068 0.011597883 -0.012849564 0.016020695 -0.01368257
-0.013779132 -0.009703674 0.009886357 0.0076448754 0.011066634 -0.014947767 0.012324625 -0.011917179
0.014630118 -0.009459561 0.011767419 0.008221676 0.013855566 0.01482646 0.009194545 -0.008979608
0.013396622 0.010233764 0.011506975 0.013331316 0.013425726 0.0068472098 0.016126169 0.0076692165
-0.011983049 0.010714755 0.010247033 -0.010591318 0.008380458 -0.010242447 0.013949248 -0.0119627295
-0.011786254 0.015875056 -0.0108161615 0.012623918 0.008882942 -0.017339194 0.011721828 -0.0111810425
-0.011997956 -0.014945762 0.012407187 0.0061904 -0.00936463 -0.00832845 0.007951625 0.0125409085
00000000: 4f11 123c d0f8 6cbc e31f 76bc 2a9b adbb
00000010: 42a1 19bc 8d82 693c 9c9e 433c a60a 553c
00000020: 4b3e 22bc 45fb 7b3c 72c8 46bc 760a 3b3c
00000030: 0c05 3e3c fa86 52bc d53d 833c dc2c 60bc
00000040: dec1 61bc 29fc 1ebc 63fa 213c dd81 fa3b
00000050: d450 353c 7be7 74bc 39ed 493c 4640 43bc
00000060: 2ab3 6f3c 46fc 1abc 22cc 403c 35b4 063c
00000070: 7502 633c aeea 723c b8a4 163c 351f 13bc
00000080: 817d 5b3c 84ab 273c c087 3c3c 986b 5a3c
00000090: 94f7 5b3c 8f5e e03b 071b 843c 0d4e fb3b
000000a0: 8d54 44bc f18c 2f3c 2ce3 273c 3587 2dbc
000000b0: 304e 093c f0cf 27bc 638b 643c 53ff 43bc
000000c0: 221b 41bc 680c 823c 4536 31bc 8dd4 4e3c
000000d0: c289 113c ed0a 8ebc e90c 403c b130 37bc
000000e0: 1393 44bc 12df 74bc 8447 4b3c d7d8 ca3b
000000f0: 1b6e 19bc 0d74 08bc 8847 023c 6278 4d3c

sigma_S.singlePeriodNets.0.batchnorms.1.running_mean f4 [64]
0.16470103 0.1850447 0.053313676 0.17325969 0.31004718 0.24535386 0.18056633 0.060087107
0.23891702 0.16061442 0.116974264 0.27295622 0.4271572 0.30341178 0.05931581 0.18835682
0.5156372 0.32568657 0.20503901 0.12229208 0.14945653 0.2457493 0.23084421 0.044124156
0.17244478 0.073914185 0.09237409 0.14992572 0.12192338 0.22109604 0.08403249 0.27540237
0.15769166 0.06486863 0.055687167 0.3650963 0.30355677 0.09803277 0.06594981 0.2687839
0.21847495 0.3646843 0.14196935 0.1688279 0.14603037 0.06025975 0.1404322 0.31416684
0.30456212 0.22331385 0.13076878 0.17680681 0.2406903 0.22580016 0.18076552 0.23285894
0.12535092 0.18189634 0.117986694 0.148536 0.1427031 0.26017594 0.15323633 0.10801444
00000000: 63a7 283e 5c7c 3d3e 715f 5a3d fd6a 313e
00000010: 81be 9e3e 0b3e 7b3e 61e6 383e e61d 763d
00000020: aaa6 743e 1b78 243e 3490 ef3d ebc0 8b3e
00000030: 59b4 da3e ca58 9b3e 23f5 723d 9ce0 403e
00000040: cd00 043f 64c0 a63e bff5 513e 4574 fa3d
00000050: 220b 193e b4a5 7b3e 6d62 6c3e 88bb 343d
00000060: 5d95 303e 5260 973d a02e bd3d 2186 193e
00000070: f7b2 f93d 0067 623e 3a19 ac3d 8a01 8d3e
00000080: ec79 213e d8d9 843d 3a18 643d e7ed ba3e
00000090: cb6b 9b3e 68c5 c83d b210 873d 0b9e 893e
000000a0: e6b7 5f3e e7b7 ba3e 6a60 113e 39e1 2c3e
000000b0: fc88 153e edd2 763d 75cd 0f3e 7ada a03e
000000c0: 91ef 9b3e 63ac 643e 40e8 053e d80c 353e
000000d0: 8577 763e 2838 673e 991a 393e 9372 6e3e
000000e0: fe5b 003e 0943 3a3e 02a3 f13d d219 183e
000000f0: c320 123e c835 853e fce9 1c3e ad36 dd3d

sigma_S.singlePeriodNets.0.batchnorms.1.running_var f4 [64]
0.061825197 0.18594113 0.04462814 0.099657275 0.3635146 0.7174605 0.27302712 0.064257756
0.24243687 0.035427257 0.036607604 0.10361784 0.27123284 0.50858444 0.029643891 0.09776374
2.1216717 1.1326447 0.19611624 0.038831968 0.09655175 0.74976486 0.21766576 0.025650783
0.3024528 0.06487212 0.026079653 0.07120923 0.060254768 0.07148219 0.06218352 0.28012902
0.017909782 0.08919407 0.027128275 0.53274256 0.9892855 0.09527896 0.06364511 0.07170608
0.5439102 0.57266027 0.17431755 0.40791255 0.066081576 0.050182648 0.03211711 0.2758257
0.62979686 0.41955715 0.04085084 0.47505242 0.59787494 0.18693365 0.4854331 0.24597867
0.03788182 0.1254294 0.25265443 0.045696102 0.24994063 0.12881315 0.20159309 0.06750864
00000000: 6b3c 7d3d 5a67 3e3e ffcb 363d 1d19 cc3d
00000010: 961e ba3e 7eab 373f 36ca 8b3e 9299 833d
00000020: 5f41 783e 2c1c 113d dbf1 153d 9735 d43d
00000030: 08df 8a3e 9732 023f bfd7 f23c 5b38 c83d
00000040: 78c9 0740 80fa 903f b2d2 483e 450e 1f3d
00000050: edbc c53d 97f0 3f3f c6e3 5e3e 9721 d23c
00000060: 18db 9a3e addb 843d ffa4 d53c 25d6 913d
00000070: b4cd 763d 4165 923d 26b4 7e3d 126d 8f3e
00000080: 89b7 923c 61ab b63d 1e3c de3c d161 083f
00000090: d141 7d3f 9e21 c33d 5e58 823d a3da 923d
000000a0: b33d 0b3f dd99 123f 4d80 323e ead9 d03e
000000b0: c755 873d 528c 4d3d 3b8d 033d 0739 8d3e
000000c0: 5e3a 213f 32d0 d63e 3653 273d 123a f33e
000000d0: 550e 193f 896b 3f3e b08a f83e d5e1 7b3e
000000e0: f829 1b3d 9170 003e ec5b 813e d62b 3b3d
000000f0: 70f0 7f3e 98e7 033e 6b6e 4e3e f841 8a3d

sigma_S.singlePeriodNets.1.linears.0.weight f4 [64, 3]
0.47513238 0.13372055 0.13442144 -0.23892663 0.0050945487 0.10726575 -0.29289946 -0.014508586
0.0014289088 -0.30722845 0.022365645 0.20504633 0.3876949 0.46759313 0.12777093 0.056399122
-0.028394433 -0.008130764 0.08568632 -0.17599922 0.10820025 -0.0058499547 0.0717394 0.0036784937
0.2334478 -0.007226149 -0.24545573 -0.07409871 -0.1891281 0.075514 -0.0658723 -0.049138
-0.3211917 0.082538776 -0.02079807 0.07982674 0.20222823 -0.09561894 0.17100282 0.14734156
-0.007324034 0.16674769 0.041717988 -0.09192858 -0.08024746 -0.12990464 -0.25357378 0.05947916
0.06443787 0.16956115 0.07511657 -0.15785162 0.22436371 -0.19891079 -0.16130848 -0.19276492
0.12606236 0.14488077 0.2564442 0.028045915 0.16930275 -0.010966386 0.023286417 -0.29108912
-0.2138714 0.22134471 -0.12278001 0.358119 -0.057212412 0.21061225 -0.033755727 -0.21640283
-0.032435164 -0.04311579 0.08896157 0.022816742 0.08103052 0.25719738 0.17900677 0.15917554
0.020544384 0.1709546 0.16818677 -0.2265457 -0.051794875 0.029229963 -0.14537989 -0.06358191
0.21658264 -0.11434066 -0.26202163 -0.18950377 0.0064964816 -0.018694371 -0.123989314 -0.029311808
-0.108928315 -0.31744522 -0.173059 0.12909344 -0.13070221 -0.19855832 0.2147325 0.0027210168
0.060673777 -0.22682619 -0.08346097 -0.11620894 -0.082685776 -0.18737447 -0.016130362 0.021924438
-0.08314261 -0.12959762 -0.2095577 0.001228937 0.060684253 -0.019280382 0.17573918 0.081519395
0.17230298 -0.12412848 -0.16090031 -0.1532692 0.078267366 -0.05685269 0.15377042 0.13810585
0.127044 -0.2021618 -0.052914754 -0.010538785 0.23996833 0.09890851 0.10900962 -0.25018957
0.009316955 -0.08477749 0.16333444 -0.33668938 -0.14240737 0.17531078 0.12003802 -0.06811227
-0.15386884 0.1064855 0.25773972 0.04055249 0.27433667 0.21421961 0.0048554153 -0.06892164
-0.22885376 0.34653866 -0.21987778 -0.12803105 -0.04575738 -0.19642378 -0.035092544 0.02957099
0.09727266 0.097106 0.066774 -0.24868062 -0.10867865 0.039035972 0.46437144 -0.1956924
0.06856632 0.031066256 -0.2695429 0.13012303 -0.2065783 0.24743287 0.16678157 -0.09745419
-0.24901517 0.14681557 0.05032256 0.05978563 -0.17624834 -0.1401276 0.025560949 0.14622636
-0.06662703 -0.24146156 0.020929651 0.11217695 -0.042819098 0.0065927715 -0.13141645 0.18068849
00000000: 8d44 f33e 0aee 083e c6a5 093e 2fa9 74be
00000010: 2cf0 a63b 25ae db3d ebf6 95be 6cb5 6dbc
00000020: 394a bb3a 0c4d 9dbe 2838 b73c aaf7 513e
00000030: f27f c63e 5e68 ef3e 62d6 023e c402 673d
00000040: 719b e8bc e536 05bc 4f7c af3d 2439 34be
00000050: 1898 dd3d fab0 bfbb 1bec 923d e212 713b
00000060: f10c 6f3e 55c9 ecbb bf58 7bbe 11c1 97bd
00000070: ccaa 41be 16a7 9a3d 0ee8 86bd ed44 49bd
00000080: 3d73 a4be 170a a93d b760 aabc 347c a33d
00000090: eb14 4f3e ddd3 c3bd 5d1b 2f3e b5e0 163e
000000a0: 73fe efbb e8bf 2a3e 7be0 2a3d 0d45 bcbd
000000b0: c858 a4bd b905 05be 6cd4 81be 6ba0 733d
000000c0: 01f8 833d 70a1 2d3e b7d6 993d dba3 21be
000000d0: 9abf 653e 45af 4bbe 0d2e 25be 2b64 45be
000000e0: 7e16 013e a05b 143e a74c 833e 8cc0 e53c
000000f0: b35d 2d3e 5bac 33bc 28c3 be3c a209 95be
00000100: 1b01 5bbe 30a8 623e 1674 fbbd 605b b73e
00000110: 9057 6abd bdaa 573e 7243 0abd b498 5dbe
00000120: bcda 04bd 2f9a 30bd 7c31 b63d 2dea ba3c
00000130: 54f3 a53d 60af 833e 8d4d 373e eafe 223e
00000140: b24c a83c b90e 2f3e 2739 2c3e 99fb 67be
00000150: dd26 54bd ad73 ef3c 77de 14be 3c37 82bd
00000160: d7c7 5d3e 702b eabd b327 86be 470d 42be
00000170: 70e0 d43b f024 99bc 1cee fdbd 511f f0bc
00000180: cf15 dfbd 2e88 a2be 6136 31be 1231 043e
00000190: cdd6 05be df52 4bbe d6e2 5b3e 1653 323b
000001a0: 1185 783d 2045 68be 96ed aabd f4fe edbd
000001b0: 2957 a9bd 18df 3fbe d223 84bc e19a b33c
000001c0: ac46 aabd 3db5 04be 4b96 56be 4814 a13a
000001d0: 0d90 783d e4f1 9dbc f9f4 333e a4f3 a63d
000001e0: 3170 303e 1337 febd 0dc3 24be 9af2 1cbe
000001f0: a44a a03d 5ede 68bd fe75 1d3e 9f6b 0d3e
00000200: d317 023e 8103 4fbe 24bd 58bd deaa 2cbc
00000210: 42ba 753e 8b90 ca3d 7040 df3d d918 80be
00000220: 24a6 183c d29f adbd 2541 273e 8d62 acbe
00000230: 3dd3 11be ab84 333e 7ed6 f53d 727e 8bbd
00000240: cb8f 1dbe 1215 da3d 76f6 833e 5e1a 263d
00000250: db75 8c3e 635c 5b3e 2d1a 9f3b ca26 8dbd
00000260: a458 6abe 846d b13e a427 61be 921a 03be
00000270: 176c 3bbd 5123 49be 33bd 0fbd dc3e f23c
00000280: e336 c73d 83df c63d cfc0 883d 22a6 7ebe
00000290: e992 debd 2fe4 1f3d 18c2 ed3e 9763 48be
000002a0: 806c 8c3d a97e fe3c 8701 8abe f93e 053e
000002b0: 4389 53be 0b5f 7d3e cac8 2a3e 1096 c7bd
000002c0: d5fd 7ebe d256 163e 071f 4e3d c7e1 743d
000002d0: 727a 34be 9c7d 0fbe 3265 d13c 5dbc 153e
000002e0: c173 88bd b341 77be a974 ab3c 07bd e53d
000002f0: 1463 2fbd 2d08 d83b 0992 06be 6706 393e

sigma_S.singlePeriodNets.1.linears.0.bias f4 [64]
-0.29592577 0.15916596 0.1672284 -0.40007624 0.15541078 -0.44745946 0.029434144 -0.04908464
-0.53800035 0.3102911 -0.33523765 -0.3552947 -0.28995308 -0.049029898 -0.010336757 -0.13189778
0.021009754 -0.20854118 -0.12043378 0.34582663 -0.25557384 -0.27474505 -0.20250699 -0.01136297
-0.50132865 0.07714614 -0.21604991 0.19577055 -0.056326516 0.54402924 0.26572013 -0.19496197
-0.55659413 0.37298006 0.16740355 0.52057636 0.52646434 -0.30250466 -0.48768798 0.007024632
-0.03954053 0.066198416 0.24390627 -0.1411725 0.14935246 0.11393788 0.48442912 0.15637124
0.095851064 0.46778002 0.28449327 -0.4614169 -0.29993603 -0.20390838 0.12581158 -0.25079176
0.32418317 -0.15528288 -0.5239692 -0.24856159 -0.33090186 0.5250925 0.15455851 0.21472418
00000000: 9583 97be 67fc 223e ec3d 2b3e cbd6 ccbe
00000010: 0124 1f3e 6819 e5be e01f f13c fa0c 49bd
00000020: 64ba 09bf 7ade 9e3e 45a4 abbe 30e9 b5be
00000030: bb74 94be 93d3 48bd 805b 29bc 3610 07be
00000040: a61c ac3c d28b 55be fca5 f6bd 3010 b13e
00000050: 93da 82be 62ab 8cbe fe5d 4fbe c02b 3abc
00000060: 1357 00bf ccfe 9d3d 303c 5dbe 1378 483e
00000070: a2b6 66bd 8045 0b3f 780c 883e 1ca4 47be
00000080: f47c 0ebf 3ef7 be3e d66b 2b3e 7e44 053f
00000090: 5ec6 063f e4e1 9abe 3db2 f9be e22e e63b
000000a0: 40f5 21bd 0993 873d 91c2 793e 868f 10be
000000b0: daef 183e 4358 e93d 1807 f83e c81f 203e
000000c0: 904d c43d dd80 ef3e 1aa9 913e d63e ecbe
000000d0: 3791 99be 5ccd 50be c0d4 003e c767 80be
000000e0: 56fb a53e 7a02 1fbe d822 06bf ee86 7ebe
000000f0: f86b a9be 766c 063f 9644 1e3e a8e0 5b3e

sigma_S.singlePeriodNets.1.linears.1.weight f4 [64, 64]
-0.0014851977 -0.13865495 0.041881364 0.062156416 0.07312843 0.037396606 0.014485236 0.11172766
-0.11358655 -0.26955292 -0.003810756 0.14755532 -0.021827506 -0.14873719 -0.008323798 -0.11809891
-0.25742325 0.009647742 0.08685447 -0.031047182 0.10998175 0.15343922 0.18924302 -0.019102521
0.006915701 0.040772863 0.21302229 0.14149204 0.23001944 0.033414256 0.024764877 0.13146497
-0.08192245 -0.06777347 -0.048845127 0.025302052 -0.03254682 0.1731078 0.034274653 -0.024930311
-0.09169029 0.1914021 0.06597876 -0.17492543 -0.18185946 -0.020358054 0.18460622 -0.16646425
0.059403893 -0.05152234 0.2627803 0.09634491 -0.11576626 0.06895381 0.10435866 0.14129011
-0.025056776 -0.049206834 -0.055767946 0.264925 -0.024175068 0.05313429 0.10029462 0.105415046
0.102976754 0.022497632 0.22182517 -0.08114159 -0.049113046 -0.017895672 -0.27083296 0.07035631
-0.09730382 -0.27442056 -0.12764174 -0.019180872 0.064668566 -0.2164003 0.13009006 -0.13980325
-0.3088824 0.16492039 0.258842 -0.07312438 0.23535158 0.05582628 0.02276942 -0.04784581
0.09144295 0.01829229 -0.27717015 -0.23531349 -0.04606323 0.11824748 0.2225878 0.07154896
-0.07449502 0.08377349 -0.17098638 0.05014666 -0.012708116 0.051960904 -0.021940963 0.04792911
0.19616324 0.03849687 -0.0919841 -0.09111625 -0.16507025 -0.19484833 -0.24382699 -0.10199399
0.10207532 0.0016503774 0.09304669 -0.12886533 0.06556832 0.1744952 -0.16251433 -0.03151641
-0.025154145 -0.020514576 -0.095059454 0.025048843 -0.19608761 -0.04599796 -0.047180127 0.10488741
0.16586834 0.1617284 -0.14050102 -0.07124489 0.12155393 0.13802709 -0.0338649 0.2939327
-0.22461452 0.12295373 0.16110434 0.02839057 -0.04578648 0.07554096 -0.18774827 -0.0046339035
0.0073859375 -0.01621422 -0.17653069 -0.05368696 -0.23472558 -0.16808619 0.09179866 0.14124647
-0.14996871 -0.14160112 -0.06702021 0.21967721 0.006646491 0.080116205 0.08758308 0.032068953
0.29688185 -0.04965153 -0.011430235 -0.05049786 -0.018360682 0.0659203 0.04836775 0.08875464
0.053759344 -0.21013215 0.097884014 -0.005437618 0.15574162 -0.03624002 0.0034981568 0.028134126
-0.01437485 0.10014886 -0.03894304 0.12627406 0.09064323 0.1577938 0.23414905 0.16530316
0.22763586 0.011174155 -0.012365201 -0.006189268 0.07658638 0.19800779 -0.040970825 -0.17661676
0.1611717 -0.0406652 0.07269763 -0.0036963557 0.059262957 0.12137236 -0.014531848 0.24198857
0.107336126 0.1400432 0.06366298 0.15876366 0.089300044 -0.22476633 -0.10438312 -0.12913312
-0.2827902 0.12454406 -0.3466952 0.027070822 -0.069427066 0.20979442 -0.014521457 0.16162291
-0.11240372 0.070907645 0.046537016 -0.0406143 0.023007264 0.011465438 -0.019259468 0.048400346
0.009558889 -0.05490701 0.0709994 -0.08320552 -0.025010116 -0.07305105 -0.033061035 0.044887874
-0.0118812155 -0.18285531 -0.10072266 -0.18890934 -0.08392296 -0.3536276 -0.1026451 0.072107114
-0.046013176 0.076919176 0.20459397 0.29878697 -0.0887539 -0.064228855 0.078668535 0.1119871
0.13988978 -0.08496767 0.056463465 0.04511211 -0.13733165 0.102903135 -0.18912888 0.13331145
00000000: f7aa c2ba 90fb 0dbe cb8b 2b3d ba97 7e3d
00000010: 5cc4 953d 2f2d 193d 7c53 6d3c 79d1 e43d
00000020: 11a0 e8bd d702 8abe e0bd 79bb be18 173e
00000030: 99cf b2bc 904e 18be 8a60 08bc d7dd f1bd
00000040: fbcc 83be 9011 1e3c c2e0 b13d a956 febc
00000050: 1d3e e13d 2c1f 1d3e ecc8 413e e47c 9cbc
00000060: 1b9d e23b 7201 273d 8422 5a3e 4ae3 103e
00000070: 378a 6b3e 63dd 083d b6df ca3c c19e 063e
00000080: f5c6 a7bd d1cc 8abd d411 48bd 4046 cf3c
00000090: d04f 05bd 2c43 313e 9463 0c3d a73a ccbc
000000a0: 1ec8 bbbd e9fe 433e df1f 873d a71f 33be
000000b0: 5e39 3abe efc5 a6bc 6a09 3d3e 9b75 2abe
000000c0: 7f51 733d 1709 53bd 248b 863e 7b50 c53d
000000d0: dc16 edbd a837 8d3d feb9 d53d 5bae 103e
000000e0: de43 cdbc 1b8d 49bd ee6c 64bd 40a4 873e
000000f0: cb0a c6bc 57a3 593d 4467 cd3d d8e3 d73d
00000100: 7ae5 d23d f44c b83c 2326 633e 902d a6bd
00000110: c32a 49bd f299 92bc 9eaa 8abe f816 903d
00000120: 3a47 c7bd da80 8cbe 84b4 02be 3421 9dbc
00000130: f470 843d 0a98 5dbe 5436 053e 9528 0fbe
00000140: d525 9ebe e4e0 283e f086 843e 3cc2 95bd
00000150: 0100 713e 19aa 643d ef86 ba3c f8f9 43bd
00000160: 7146 bb3d b6d9 953c 3fe9 8dbe 05f6 70be
00000170: ccac 3cbd bc2b f23d 0eee 633e 4388 923d
00000180: d890 98bd 6f91 ab3d 0e17 2fbe 9666 4d3d
00000190: b435 50bc f5d4 543d 89bd b3bc 5051 443d
000001a0: 04df 483e e5ae 1d3d 2962 bcbd 289b babd
000001b0: 2d08 29be 5286 47be c8ad 79be 3ae2 d0bd
000001c0: de0c d13d 7a51 d83a 438f be3d 46f5 03be
000001d0: af48 863d dfae 323e 286a 26be 5a17 01bd
000001e0: 1110 cebc 2f0e a8bc 88ae c2bd 3b33 cd3c
000001f0: 31cb 48be 5b68 3cbd f33f 41bd 36cf d63d
00000200: 64d9 293e 219c 253e 80df 0fbe d7e8 91bd
00000210: 44f1 f83d f956 0d3e ecb5 0abd 597e 963e
00000220: 5901 66be 2acf fb3d 89f8 243e 5793 e83c
00000230: 9b8a 3bbd 38b5 9a3d 1541 40be 00d8 97bb
00000240: bc05 f23b afd3 84bc 76c4 34be dce6 5bbd
00000250: e75b 70be c91e 2cbe f000 bc3d eaa2 103e
00000260: 6691 19be e2ff 10be e441 89bd 10f3 603e
00000270: cfca d93b f713 a43d c25e b33d bc5a 033d
00000280: e600 983e 675f 4bbd e145 3bbc d8d6 4ebd
00000290: 2469 96bc 3901 873d 431d 463d fec4 b53d
000002a0: c232 5c3d e22c 57be 6a77 c83d 0c2e b2bb
000002b0: bb7a 1f3e 6a70 14bd 5541 653b 8a79 e63c
000002c0: 7e84 6bbc d81a cd3d bd82 1fbd fd4d 013e
000002d0: 28a3 b93d b394 213e c5c4 6f3e 3b45 293e
000002e0: 6019 693e ce13 373c 6997 4abc 58cf cabb
000002f0: 52d9 9c3d 8ec2 4a3e 06d1 27bd 06db 34be
00000300: 320a 253e 8e90 26bd 7fe2 943d 8f3e 72bb
00000310: b7bd 723d 1292 f83d fd16 6ebc dacb 773e
00000320: 0bd3 db3d 7c67 0f3e bd61 823d f192 223e
00000330: f1e2 b63d 2529 66be d1c6 d5bd 793b 04be
00000340: e1c9 90be f510 ff3d 0982 b1be a1c3 dd3c
00000350: c72f 8ebd 59d4 563e 68eb 6dbc 7a80 253e
00000360: ec33 e6bd 0738 913d 999d 3e3d 2e5b 26bd
00000370: bb79 bc3c 88d9 3b3c 08c6 9dbc 713f 463d
00000380: e39c 1c3c 2ce6 60bd 2268 913d a867 aabd
00000390: 04e2 ccbc ca9b 95bd 026b 07bd 59dc 373d
000003a0: 6ea9 42bc 6c3e 3bbe af47 cebd 7371 41be
000003b0: cddf abbd ad0e b5be 9837 d2bd e5ac 933d
000003c0: 5078 3cbd cd87 9d3d 1581 513e 9bfa 983e
000003d0: 9bc4 b5bd 6b8a 83bd f81c a13d 7e59 e53d
000003e0: 443f 0f3e 8803 aebd 3c46 673d 7ac7 383d
000003f0: aba0 0cbe e1be d23d 00ab 41be cc82 083e

sigma_S.singlePeriodNets.1.linears.1.bias f4 [64]
-0.03635369 0.053844403 -0.07354142 -0.12144624 0.12424101 -0.07511081 0.09117459 -0.0032941445
0.114095114 0.011385601 -0.12246305 0.036365163 0.036579534 0.026525991 0.09742106 -0.049405478
-0.073053464 0.13314304 -0.023984 -0.025523948 0.07043588 0.012382294 -0.005114787 0.011564242
0.06720599 0.09455399 -0.029901167 0.011731666 -0.058720276 0.11298547 -0.097552516 -0.020042814
0.030835027 0.064028576 0.037611037 -0.016644007 -0.029589204 -0.10826145 -0.025957953 0.09940601
0.08184816 0.044352747 0.08837969 -0.017978795 0.096507445 0.058351245 -0.03997912 0.0590852
0.07723864 -0.038606767 -0.10507164 0.0053125643 -0.114651166 0.06853703 -0.002717915 0.11058387
-0.036501177 -0.09894183 -0.074181296 0.0017048485 0.025017852 -0.003110657 -0.07654573 -0.07585681
00000000: 9be7 14bd f38b 5c3d e29c 96bd ceb8 f8bd
00000010: 1272 fe3d b2d3 99bd beb9 ba3d 93e2 57bb
00000020: b3aa e93d ac8a 3a3c e8cd fabd a3f3 143d
00000030: 6cd4 153d 094d d93c b184 c73d 665d 4abd
00000040: 0e9d 95bd a656 083e 187a c4bc 9917 d1bc
00000050: b040 903d 1bdf 4a3c f199 a7bb f277 3d3c
00000060: 4ba3 893d 86a5 c13d 4bf3 f4bc 2c36 403c
00000070: ac84 70bd ed64 e73d 9dc9 c7bd d430 a4bc
00000080: bd99 fc3c 6a21 833d 080e 1a3d 0359 88bc
00000090: 0f65 f2bc 2eb8 ddbd c6a5 d4bc 6195 cb3d
000000a0: 02a0 a73d 3aab 353d 6900 b53d 4448 93bc
000000b0: b2a5 c53d b701 6f3d 25c1 23bd 5303 723d
000000c0: 4b2f 9e3d 2122 1ebd cd2f d7bd 0515 ae3b
000000d0: 3bce eabd 245d 8c3d 0c1f 32bb cc79 e23d
000000e0: 4282 15bd 04a2 cabd 5dec 97bd 3975 df3a
000000f0: 3df2 cc3c 2adc 4bbb 02c4 9cbd d15a 9bbd

sigma_S.singlePeriodNets.1.linears.2.weight f4 [1, 64]
0.0055691265 -0.059629206 0.06581251 -0.0030831664 0.038725503 -0.0066029546 0.07979795 0.0692074
0.10937019 0.16806257 -0.18940881 -0.07210112 0.0046834946 0.023363903 0.045778453 -0.017175928
-0.025039606 -0.18380763 -0.19986631 -0.03527356 -0.01288344 0.0682454 -0.09152538 0.40055007
0.09052615 -0.1385037 0.17903204 0.00079559174 0.007584491 0.23892477 -0.09925564 0.05783803
-0.29061234 -0.024645304 0.16602032 0.013974744 -0.11321743 -0.055830915 0.05735336 0.059046257
0.035556864 0.04578301 0.08642014 0.009771437 -0.18530048 0.26317763 -0.2436581 0.13600567
0.20584309 0.1341341 0.48245344 0.012944366 0.17676514 0.08825497 0.21843635 -0.2339265
0.017033366 -0.1981728 0.24543938 -0.3151884 -0.06045389 0.14183845 -0.124549545 -0.06266674
00000000: 387d b63b c13d 74bd b6c8 863d f30e 4abb
00000010: a29e 1e3d 995d d8bb 1c6d a33d 9cbc 8d3d
00000020: 7afd df3d 9818 2c3e 62f4 41be c1a9 93bd
00000030: 0078 993b a865 bf3c 3082 3b3d 88b4 8cbc
00000040: dc1f cdbc 1138 3cbe c1a9 4cbe 027b 10bd
00000050: 1015 53bc 3fc4 8b3d a971 bbbd e614 cd3e
00000060: c665 b93d ead3 0dbe 2d54 373e 428f 503a
00000070: 5287 f83b b2a8 743e 8a46 cbbd 92e7 6c3d
00000080: 24cb 94be f3e4 c9bc 3b01 2a3e 53f6 643c
00000090: 8ade e7bd f5ae 64bd 5beb 6a3d 7dda 713d
000000a0: 13a4 113d f786 3b3d 0bfd b03d 6118 203c
000000b0: 69bf 3dbe 38bf 863e 8281 79be 1245 0b3e
000000c0: 88c8 523e 735a 093e 2304 f73e 9b14 543c
000000d0: ec01 353e 06bf b43d c7ad 5f3e 6e8a 6fbe
000000e0: 8f89 8b3c cfed 4abe 7654 7b3e 6060 a1be
000000f0: 809e 77bd 193e 113e d513 ffbd 6b57 80bd

sigma_S.singlePeriodNets.1.batchnorms.0.weight f4 [64]
0.9880226 1.0000664 1.0 0.9950365 1.0135286 1.0 1.0 1.0062765
1.0 1.0 1.0 0.99272144 1.0 1.0009669 1.0 1.0
0.99077857 1.0061785 1.0 1.0217872 0.9939945 1.0 0.9915258 1.0
1.0 0.9958445 0.98322 1.007259 0.9876566 0.9912475 1.0 1.0
1.0 1.0 0.9996897 1.0 1.0 1.0 1.0121225 0.98248494
1.0 0.9932416 1.0160613 1.0 1.0192591 0.97622055 1.0 1.0057449
0.9895124 0.99968284 1.0 1.0 1.0 1.0139108 1.0 1.0015113
1.0103059 1.0 1.0 1.0120183 1.0 1.0 1.0206999 1.0
00000000: 0def 7c3f 2d02 803f 0000 803f b6ba 7e3f
00000010: 4ebb 813f 0000 803f 0000 803f abcd 803f
00000020: 0000 803f 0000 803f 0000 803f fe22 7e3f
00000030: 0000 803f af1f 803f 0000 803f 0000 803f
00000040: aaa3 7d3f 75ca 803f 0000 803f ecc9 823f
00000050: 6c76 7e3f 0000 803f a3d4 7d3f 0000 803f
00000060: 0000 803f aaef 7e3f 4eb4 7b3f dded 803f
00000070: 10d7 7c3f 65c2 7d3f 0000 803f 0000 803f
00000080: 0000 803f 0000 803f aaeb 7f3f 0000 803f
00000090: 0000 803f 0000 803f 3b8d 813f 2284 7b3f
000000a0: 0000 803f 1545 7e3f 4c0e 823f 0000 803f
000000b0: 1577 823f 97e9 793f 0000 803f 40bc 803f
000000c0: af50 7d3f 37eb 7f3f 0000 803f 0000 803f
000000d0: 0000 803f d4c7 813f 0000 803f 8631 803f
000000e0: b451 813f 0000 803f 0000 803f d189 813f
000000f0: 0000 803f 0000 803f 4ba6 823f 0000 803f

sigma_S.singlePeriodNets.1.batchnorms.0.bias f4 [64]
0.0063217636 -0.0057384283 -0.0021490785 -0.0011285578 -0.013747441 0.005524072 0.006264216 0.007279017
0.00794303 -0.012857486 0.0077937935 0.015569248 -0.016288191 0.0029060685 0.009277734 -0.0002115118
0.012467722 0.012701045 0.017730152 -0.018523531 -0.008573722 -0.014179009 0.0042335005 -0.011557341
0.00018863652 0.005762552 0.010439071 0.011802368 0.0029143556 -0.004969201 0.0094262855 0.002166403
0.0027574734 0.0051863263 -0.002186726 -0.007345594 0.006751373 0.0076082614 0.006575797 -0.009298094
0.011508349 0.0027204081 -0.0042431257 -0.008581712 -0.0014392653 -0.008090492 0.012069458 -0.006401714
0.0020182503 0.0011923204 0.0061202287 0.006462835 -0.011193195 -0.015491736 -0.008389655 0.006708073
0.009793108 0.01439839 0.010321526 -0.0050433283 0.006233803 -0.013527585 -0.0024333233 -0.009105287
00000000: cc26 cf3b 6d09 bcbb 8ed7 0cbb 1eec 93ba
00000010: f23c 61bc 4603 b53b 0d44 cd3b d284 ee3b
00000020: 7c23 023c 34a8 52bc 1463 ff3b 2916 7f3c
00000030: d06e 85bc bd73 3e3b a301 183c 44c9 5db9
00000040: 6b45 4c3c 0b18 503c d33e 913c a9be 97bc
00000050: cc78 0cbc 134f 68bc 2db9 8a3b 005b 3dbc
00000060: bbcc 4539 cad3 bc3b a308 2b3c b85e 413c
00000070: c6fe 3e3b aed4 a2bb b570 1a3c 36fa 0d3b
00000080: bab6 343b 0ff2 a93b 2d4f 0fbb 4fb3 f0bb
00000090: 9f3a dd3b b94e f93b c979 d73b 0857 18bc
000000a0: 848d 3c3c e048 323b eb09 8bbb 4f9a 0cbc
000000b0: bba5 bcba fc8d 04bc fabe 453c 78c5 d1bb
000000c0: 9f44 043b a247 9c3a 338c c83b 30c6 d33b
000000d0: aa63 37bc 0dd1 7dbc c374 09bc 65cf db3b
000000e0: 4673 203c 3ae7 6b3c 9e1b 293c 8142 a5bb
000000f0: ee44 cc3b cea2 5dbc 6478 1fbb 572e 15bc

sigma_S.singlePeriodNets.1.batchnorms.0.running_mean f4 [64]
13.909152 0.5154952 0.0 1.7103645 48.53934 0.0 0.0 7.308748
0.0 0.0 0.0 6e-45 0.0 0.0040506204 0.0 0.0
17.510838 22.585953 0.0 26.802269 6e-45 0.0 36.410614 0.0
0.0 8.525194 16.28651 17.507416 2.8330197 22.66141 0.0 0.0
0.0 0.0 0.6651066 0.0 0.0 0.0 0.00022428873 18.058804
0.0 7.935611 14.608584 0.0 10.560963 0.809438 0.0 12.600691
10.998293 28.748682 0.0 0.0 0.0 9.846618 0.0 47.34913
3.455209 0.0 0.0 5.0726366 0.0 0.0 11.665371 0.0
00000000: e38b 5e41 7ef7 033f 0000 0000 39ed da3f
00000010: 4928 4242 0000 0000 0000 0000 43e1 e940
00000020: 0000 0000 0000 0000 0000 0000 0400 0000
00000030: 0000 0000 11bb 843b 0000 0000 0000 0000
00000040: 3216 8c41 08b0 b441 0000 0000 0c6b d641
00000050: 0400 0000 0000 0000 78a4 1142 0000 0000
00000060: 0000 0000 3267 0841 c64a 8241 300f 8c41
00000070: 3250 3540 914a b541 0000 0000 0000 0000
00000080: 0000 0000 0000 0000 6d44 2a3f 0000 0000
00000090: 0000 0000 0000 0000 0c2f 6b39 6e78 9041
000000a0: 0000 0000 86f0 fd40 c3bc 6941 0000 0000
000000b0: b4f9 2841 5437 4f3f 0000 0000 6e9c 4941
000000c0: 02f9 2f41 4dfd e541 0000 0000 0000 0000
000000d0: 0000 0000 bf8b 1d41 0000 0000 8265 3d42
000000e0: 2522 5d40 0000 0000 0000 0000 0a53 a240
000000f0: 0000 0000 0000 0000 5ca5 3a41 0000 0000

sigma_S.singlePeriodNets.1.batchnorms.0.running_var f4 [64]
0.030718096 0.00798579 6e-45 0.030394085 0.17923601 6e-45 6e-45 0.0035531668
6e-45 6e-45 6e-45 6e-45 6e-45 0.003485338 6e-45 6e-45
0.027704414 0.04421483 6e-45 0.047206666 6e-45 6e-45 0.080683775 6e-45
6e-45 0.0566475 0.018449314 0.0397531 0.013271905 0.03125039 6e-45 6e-45
6e-45 6e-45 0.002550892 6e-45 6e-45 6e-45 6.776844e-05 0.030388853
6e-45 0.0046686735 0.030058017 6e-45 0.01849949 0.004223163 6e-45 0.009813407
0.062435795 0.10278208 6e-45 6e-45 6e-45 0.016141761 6e-45 0.13728876
0.045284756 6e-45 6e-45 0.005204322 6e-45 6e-45 0.007922178 6e-45
00000000: 84a4 fb3c d5d6 023c 0400 0000 04fd f83c
00000010: a589 373e 0400 0000 0400 0000 3fdc 683b
00000020: 0400 0000 0400 0000 0400 0000 0400 0000
00000030: 0400 0000 456a 643b 0400 0000 0400 0000
00000040: 5ef4 e23c 9c1a 353d 0400 0000 c75b 413d
00000050: 0400 0000 0400 0000 893d a53d 0400 0000
00000060: 0400 0000 3507 683d 0423 973c 26d4 223d
00000070: 6772 593c 6900 003d 0400 0000 0400 0000
00000080: 0400 0000 0400 0000 de2c 273b 0400 0000
00000090: 0400 0000 0400 0000 e71e 8e38 0bf2 f83c
000000a0: 0400 0000 acfb 983b 3b3c f63c 0400 0000
000000b0: 3e8c 973c 7562 8a3b 0400 0000 6ac8 203c
000000c0: adbc 7f3d 697f d23d 0400 0000 0400 0000
000000d0: 0400 0000 ba3b 843c 0400 0000 6d95 0c3e
000000e0: 827c 393d 0400 0000 0400 0000 0489 aa3b
000000f0: 0400 0000 0400 0000 06cc 013c 0400 0000

sigma_S.singlePeriodNets.1.batchnorms.1.weight f4 [64]
0.9921046 0.99560386 1.005687 0.98354155 0.9855068 0.9983783 0.98750997 0.99776256
0.99331087 1.0091085 0.9985189 0.9883068 0.995089 1.0047462 0.99101126 0.9947836
1.0140449 0.9929283 0.9955975 0.9891645 1.0102106 0.99468726 0.99507993 0.99304277
1.0133287 0.9802576 0.9898758 0.98288745 0.9992652 0.99511087 1.0006793 1.007973
0.99299234 0.9900428 1.0077531 0.9990596 1.0090998 1.0012326 0.98897165 1.0080274
0.9941443 0.9994116 0.9922302 1.0141939 0.98509854 0.990766 0.99093574 1.0037585
0.98456717 1.0041081 0.9896799 0.9994582 1.0008705 0.9970361 0.99913925 0.97883457
1.0062609 1.0138918 0.99744946 0.9893112 1.0013226 0.98806053 1.0026191 0.9948073
00000000: 91fa 7d3f e5df 7e3f 5aba 803f 61c9 7b3f
00000010: 2c4a 7c3f b895 7f3f 74cd 7c3f 5e6d 7f3f
00000020: 9f49 7e3f 782a 813f ef9e 7f3f ad01 7d3f
00000030: 27be 7e3f 869b 803f eab2 7d3f 23aa 7e3f
00000040: 39cc 813f 8d30 7e3f 7adf 7e3f e239 7d3f
00000050: 954e 813f d3a3 7e3f 8fbd 7e3f 0d38 7e3f
00000060: c1b4 813f 29f2 7a3f 8068 7d3f 839e 7b3f
00000070: d8cf 7f3f 96bf 7e3f 4216 803f 4205 813f
00000080: bf34 7e3f 7273 7d3f 0efe 803f 5fc2 7f3f
00000090: 2f2a 813f 6428 803f 3f2d 7d3f 0b07 813f
000000a0: 3e80 7e3f 70d9 7f3f cc02 7e3f 1bd1 813f
000000b0: 6b2f 7c3f d7a2 7d3f f7ad 7d3f 297b 803f
000000c0: 980c 7c3f 9d86 803f a95b 7d3f 7edc 7f3f
000000d0: 861c 803f c23d 7f3f 97c7 7f3f e794 7a3f
000000e0: 28cd 803f 35c7 813f d958 7f3f 8043 7d3f
000000f0: 572b 803f 89f1 7c3f d355 803f b1ab 7e3f
