best_model_no_bn.pth (torch, 332431 bytes, 82 tensors)

sigma_S.singlePeriodNets.0.linears.0.weight f4 [64, 3]
000000 1d f5 d4 bc 84 e3 c3 3e 48 f1 ca 3e 53 57 4e 3e
       -0.025995785 0.38259518 0.39637208 0.20150499
000010 f0 3e 48 be 47 aa 72 be a9 e2 a3 bc 16 be 04 3e
       -0.19555259 -0.23697768 -0.02000554 0.12963137
000020 53 43 bd 3e 3a 38 59 3e 90 9c 22 be 4e 2e 19 bd
       0.36965427 0.21212855 -0.15880036 -0.037397675
000030 e2 77 7e bc 23 ae d5 bd 61 0e 90 be e7 f5 3c 3e
       -0.015531512 -0.104336046 -0.2813597 0.1845318
000040 64 54 44 3d b5 52 6b 3e 03 f8 6e 3e 60 85 a8 bd
       0.047932044 0.22980769 0.23336796 -0.08228564
000050 49 80 14 3a 53 cc 20 3e 03 7c 4b 3e a3 e7 3a bd
       0.0005664868 0.15702944 0.19871525 -0.045631062
000060 fa af 8d 3e 13 4e 92 3d 88 89 10 be de e8 27 3e
       0.27673322 0.07143798 -0.14114964 0.16397426
000070 26 c4 78 3e cb e7 69 3e c7 c9 11 3d 32 b9 4f 3e
       0.24293575 0.22842328 0.03559282 0.2028549
000080 b2 bd d4 bd 2e 8b b1 3e 1a c0 b5 3e 37 b8 d6 3d
       -0.10387744 0.34676498 0.35498124 0.10484355
000090 2b 5d d0 3e 37 9c 90 bd f1 77 38 be 5a b2 99 ba
       0.40696082 -0.070610456 -0.18014504 -0.0011726127
0000a0 e3 bf 2f bd 8d 14 f5 ba cf 4d b0 bc be 82 0d be
       -0.042907607 -0.0018698141 -0.021521477 -0.13819405
0000b0 8e 7f c1 bd c9 09 99 be 06 90 25 be 85 0e 8c bd
       -0.09448157 -0.29890278 -0.16168222 -0.06838707
0000c0 ed c0 ac 3d 5d a3 e4 3d 9b 5a 60 3d 8d 70 11 be
       0.08435235 0.111639716 0.054773908 -0.14203091
0000d0 b2 76 c3 3d b2 d5 1c bd cc aa 3d 3e e4 9a e0 3e
       0.09544124 -0.038289733 0.18522185 0.43868172
0000e0 f7 83 27 be 54 82 24 bc 1f d9 1c bd 69 a3 d0 bd
       -0.16358934 -0.010040838 -0.038293 -0.10187418
0000f0 c7 ba 94 bd 62 7d 84 3e 51 1a c0 bd 0d 57 81 be
       -0.072621875 0.2587691 -0.093800195 -0.25261727
000100 0c 4a e1 3d b5 75 c0 bc c3 fe 45 3e bd d9 a6 bd
       0.110004514 -0.023493627 0.19335465 -0.08146999
000110 5c ae 22 3e 29 90 da 3d d9 8d 8c 3e 8b 61 ee 3d
       0.15886825 0.106720276 0.2745197 0.116396986
000120 a6 1f 30 bc 77 de 9c bd bd 44 92 be 0f ce 04 3b
       -0.010749733 -0.07659619 -0.28568068 0.0020264422
000130 d3 7b 77 be 63 e5 7f bd 4b 3c 24 be bf ff 53 3e
       -0.24168329 -0.06247462 -0.16038625 0.20703028
000140 ec c8 ee 3d f3 38 2d 3e 83 52 7c be 92 b9 26 3b
       0.116594166 0.16916256 -0.2464085 0.0025440198
000150 73 c9 be bd ac c9 d2 3d 06 bc 8a 3c 1a 26 eb 3d
       -0.09315767 0.10292372 0.01693536 0.11481877
000160 7c 3e d7 bd a5 89 54 3e 57 8a 49 3e f6 cb 5e 3d
       -0.10509965 0.20755632 0.19681679 0.05439373
000170 12 7c ad be fd b0 ad 3c 3f e7 28 3d 71 1b ea 3c
       -0.3388372 0.021202559 0.04123616 0.028577538
000180 a0 86 4b bc 36 7c 95 3e c0 05 7e 3e 9e b2 e0 3d
       -0.012422234 0.29196328 0.24806881 0.109715685
000190 95 64 fd bb 01 a7 19 bc bd 20 c8 3d 8c bc 92 3d
       -0.0077329376 -0.009378196 0.09771869 0.07164869
0001a0 ae 8d 76 3e 1a 8b 8e bc 26 c3 72 be a8 9f 4f bc
       0.24077484 -0.017400313 -0.23707256 -0.012672342
0001b0 4a 82 48 be 4a d2 fd 3c ad 71 d2 3d 18 98 60 3e
       -0.19580951 0.030984063 0.10275588 0.21933019
0001c0 15 2a 3b be f1 a8 fb 3d 58 b0 70 3d c6 86 c8 bd
       -0.18277772 0.122880824 0.058761925 -0.09791331
0001d0 f2 7f 18 bd 99 b4 52 3e ff 10 15 be c6 eb 4a 3d
       -0.037231393 0.20576705 -0.14557265 0.049541257
0001e0 c5 fa 42 3c f6 c5 ef 3e 59 c3 cc bc 0c f9 0e 3d
       0.011900608 0.4683072 -0.024995493 0.03490548
0001f0 3e f9 10 bc 29 28 a9 3e 5d 18 04 3f e8 56 c9 be
       -0.0088484865 0.33038452 0.51599675 -0.39324117
000200 37 c0 3b 3e e0 53 81 bc 8b 7a 3c bc ba 75 b6 3e
       0.18335043 -0.015787065 -0.011503826 0.35636693
000210 47 36 48 3d 4f 67 30 be 9b 66 47 be 21 e8 31 be
       0.048879888 -0.17226909 -0.19472735 -0.17373706
000220 de 3d 2b be ca 1b 93 3e df c7 8e 3d f5 01 28 3d
       -0.16722819 0.2873214 0.06971716 0.04101749
000230 37 04 f5 bd 23 c9 28 3d aa e0 84 be 7b fe 2c be
       -0.119636945 0.041207444 -0.25952655 -0.16893952
000240 9d 68 7e bd a7 03 71 be 81 13 06 3d b7 36 91 be
       -0.062111486 -0.2353655 0.032733444 -0.28362057
000250 42 6c c5 bd 32 bf a6 bd b5 a0 4e be c4 a0 d1 bd
       -0.09639789 -0.08141936 -0.20178492 -0.10235742
000260 51 ee 13 bd 03 14 34 3e 57 5a 57 3e a4 be 19 be
       -0.036115948 0.17585759 0.21030556 -0.1501413
000270 e3 27 20 be 0b 1b 3a 3d 63 91 0e be 89 4c d2 3c
       -0.15640216 0.045435946 -0.13922648 0.02567126
000280 01 68 0d 3e b8 71 56 3e ad 2a a3 bd b3 0f 95 bd
       0.13809206 0.20941818 -0.07967124 -0.07278385
000290 a4 a6 13 be 97 43 16 3e d4 95 73 3e 10 7c 2c 3e
       -0.14419037 0.14674221 0.23787624 0.16844201
0002a0 28 74 5e 3d b7 15 8f 3d 74 8c 5d 3d 3c 97 32 be
       0.054309994 0.06986564 0.054089025 -0.17440504
0002b0 9c 79 c7 3d 47 d0 63 3d 3e ee 6c 3e 28 15 86 3d
       0.09739992 0.05561855 0.23137757 0.06547004
0002c0 6e 88 18 3e 40 1c cc 3e 94 3d 3b 3e 59 2f 8c 3d
       0.14895794 0.39865303 0.18285209 0.06844968
0002d0 13 c6 1c bd 65 cf b8 3e f9 db e1 3d df f5 d6 3e
       -0.038274836 0.3609573 0.110282846 0.4198446
0002e0 ad 0d 5d 3e 8f 30 6d 3e 29 93 04 3e 39 62 5a bc
       0.21587248 0.23163055 0.12946762 -0.013329082
0002f0 6a 76 91 bd 85 1b b8 be 42 9b a6 3d d0 8d 9c bd
       -0.07102664 -0.35958496 0.08135082 -0.07644236

sigma_S.singlePeriodNets.0.linears.0.bias f4 [64]
000000 fb 6e c6 be f8 6f fe bd 68 3c 25 3d 9e 3b 05 3f
       -0.38756546 -0.124237 0.04034081 0.52044094
000010 a4 a1 b8 bd a4 5e 09 3e 9c c4 18 be 78 ec 5b be
       -0.090152055 0.13415009 -0.1491875 -0.21476924
000020 f4 81 68 3d 20 8c ab 3e de 6e 37 be 93 35 55 be
       0.056764558 0.33505344 -0.17913386 -0.20821218
000030 aa c3 a2 be ec c7 f9 3e 99 f6 92 be 3e 40 5f be
       -0.31789905 0.4878534 -0.28703764 -0.2180185
000040 5f 1a d5 3e 9b 2e 38 3e 39 2c 18 bd ea 44 10 bf
       0.41621682 0.17986529 -0.03715155 -0.56355155
000050 f2 a5 bc 3e 87 f3 2d bd 68 8a 0d 3f df 0d 97 3e
       0.36845356 -0.042468574 0.55289316 0.2950277
000060 32 83 cd 3e dc bf 13 3e 98 45 ee be 88 54 ca 3e
       0.40139157 0.14428657 -0.4653747 0.39517617
000070 09 e1 cc 3d b0 ca a2 3e 08 67 ac be 58 81 fe be
       0.100038595 0.31795263 -0.33672357 -0.49708056
000080 fd 04 08 bf a4 9a 2f be b7 d5 ca be 59 66 7b 3e
       -0.5313261 -0.17148834 -0.39616176 0.24550761
000090 d3 96 ed be 4f 10 42 3e bc 4c 7b 3e b1 a7 57 3d
       -0.46404132 0.18951534 0.2454099 0.052650157
0000a0 27 67 c8 3e 55 38 18 3e 1f 18 0d bf 77 5c bc 3e
       0.391412 0.14865239 -0.5511493 0.36789295
0000b0 1a 40 88 be dd b2 85 be 59 cb 08 3f 18 e6 5f 3e
       -0.26611406 -0.26113024 0.53435284 0.21865118
0000c0 6b 0a c4 3e 94 04 5d 3e 62 24 a7 be 7d 5f 04 3f
       0.38289198 0.21583778 -0.32644945 0.51708204
0000d0 33 af 0b 3f 25 8d 2f bd d6 fc 73 be a0 8d 0a 3f
       0.5456421 -0.042859215 -0.23826918 0.5412235
0000e0 a9 5f 6f be 11 62 bb 3e 8b c3 74 3e dc 81 fe be
       -0.23376335 0.36598256 0.23902719 -0.4970845
0000f0 44 2b fd be 7b 0b ca be 64 79 9f 3e f1 1a 05 3f
       -0.49447072 -0.39461884 0.311473 0.51994234

sigma_S.singlePeriodNets.0.linears.1.weight f4 [64, 64]
000000 73 9a 89 3d 58 38 ff 3d 96 59 0f 3e a6 46 8b bd
       0.06718912 0.124619186 0.13999018 -0.068005845
000010 d9 48 0f be f5 c6 27 3d ca 59 0b be 3f aa 5a bd
       -0.13992633 0.040961225 -0.1360847 -0.053385016
000020 59 b1 75 bd bd 76 e6 bd 65 b0 32 bd 8e 4a a8 3c
       -0.059983585 -0.11253116 -0.043625254 0.020543363
000030 42 76 19 3c 99 e5 1e 3e 43 7f e3 3c c7 e2 52 bd
       0.009366574 0.15517272 0.027770644 -0.051485803
000040 bc 73 99 bd 87 78 54 bd 5b c1 82 3d 0d be b3 bd
       -0.07492778 -0.051872756 0.06384536 -0.08776484
000050 1a 89 02 be f6 24 8b bd 67 71 25 bd a5 3c 24 3e
       -0.12747613 -0.06794159 -0.040391352 0.16038759
000060 55 a3 80 3e ff 05 86 bd 37 45 06 be c8 7e 11 be
       0.25124612 -0.065441124 -0.13112341 -0.1420852
000070 b8 31 ec bd 6e 7c 98 bb 3b 64 d0 bd bd d2 11 bc
       -0.115329206 -0.004653505 -0.101753674 -0.008900342
000080 15 93 92 bd 18 22 b6 bd 5b 59 27 3d 5d ad 2c 3e
       -0.0715696 -0.088932216 0.0408567 0.16863008
000090 13 99 70 3d 93 50 9d 3e c0 27 42 3e a2 ee 20 bd
       0.058739733 0.30725536 0.18960476 -0.039290078
0000a0 37 b6 49 bd 2c 3b eb 3d 70 8e b3 3d d8 63 ea 3d
       -0.04924604 0.114858955 0.08767402 0.11444825
0000b0 fa 57 10 be a4 38 6f 3e 84 3f c3 3d de 61 dd 3c
       -0.1409606 0.2336145 0.09533599 0.027024206
0000c0 ac 07 24 bd e6 51 e0 3d 04 ce 86 3e d6 cf 4a 3e
       -0.04004638 0.10953121 0.26329052 0.19805846
0000d0 c8 14 b3 3d 0c e6 40 be ce c9 d3 b9 f1 eb 04 3e
       0.08744198 -0.18837756 -0.00040395412 0.1298063
0000e0 3e ee 1c 3e fc 7d b6 bd 83 20 cc bd 5f cf 07 3e
       0.15325257 -0.08910748 -0.099671386 0.132627
0000f0 da 70 26 3e 27 ed 1c 3c 5b 1a ae bc c7 9e d9 3b
       0.16253987 0.009578026 -0.021252802 0.006641242
000100 42 68 b4 bd d3 37 1e 3c c8 2b 3d be 5d b4 11 3d
       -0.08808948 0.009656864 -0.18473732 0.0355724
000110 c7 35 06 3e a8 29 82 3e 36 49 2d be 6a 66 58 be
       0.13106452 0.25422406 -0.16922459 -0.21132818
000120 f8 a6 9b 3e e9 6c fe 3d cc ce ed bc e8 7b ea bc
       0.30400825 0.12423117 -0.029029272 -0.028623536
000130 f9 56 36 3e 30 7d 6d 3e 4d d3 9f 3d 03 13 27 3d
       0.17806615 0.23192286 0.07803974 0.040789615
000140 83 c7 0f 3d 52 d3 bd 3b bb 9a 25 be a2 23 97 bd
       0.03510238 0.0057930136 -0.16172306 -0.07379843
000150 73 77 53 3e f8 f1 3d 3e e4 7f a1 bd 9a a0 e3 bd
       0.20651035 0.18549335 -0.07885721 -0.11114617
000160 be a6 e3 3b 91 64 c4 bc df b7 d6 3d 24 60 ac bd
       0.0069473675 -0.023973735 0.104842894 -0.08416775
000170 d4 9a 0d bd 86 0b 94 bd cf 30 c7 bd 5a 89 b1 3d
       -0.034571484 -0.072287604 -0.097261064 0.08668776
000180 ef c3 bf bc bb a3 18 3e 78 b1 2c 3e 4e 54 89 3d
       -0.023408858 0.14906208 0.16864574 0.06705533
000190 2e 21 c4 bc a8 be 97 3d ca b0 32 be 33 2c 4b 3e
       -0.023941603 0.07409412 -0.17450252 0.1984108
0001a0 ab 1f 3a 3d 61 70 15 3e aa 9a d1 bc 25 49 93 bd
       0.045440357 0.1459365 -0.025586445 -0.071916856
0001b0 0c d8 ae 3d 6a 0b 44 bd 8c ab 60 3d 18 a5 26 3d
       0.085373014 -0.047862448 0.0548511 0.04068479
0001c0 91 6f 05 3e b7 d7 64 be 7b c2 da ba b0 20 82 3e
       0.1303084 -0.22347914 -0.001669004 0.25415564
0001d0 5a ab 06 3e 0e 33 83 bc 2d 26 d5 bd a4 9a a0 3e
       0.13151303 -0.016015556 -0.10407672 0.3136798
0001e0 9d 45 3b 3e 3d bf be 3d 0c d8 7b bc 91 7a ea bc
       0.18288274 0.093138196 -0.015371334 -0.028622897
0001f0 12 c3 2d 3e 5d 14 26 bd 34 56 16 bd 15 01 06 be
       0.16968945 -0.040546764 -0.036703303 -0.1308635
000200 44 99 a2 bc bb 80 96 3d dd 4c 15 3e c0 cc ff bb
       -0.019848473 0.07348772 0.14580102 -0.0078063905
000210 6f 30 bb 3d bd 09 66 3e db 85 2a 3d 35 a4 50 bd
       0.09140097 0.22464652 0.04163156 -0.05093785
000220 62 f5 49 bd 7b 65 3e bd 5e 74 87 3b 3a 2e f3 3d
       -0.04930628 -0.046483498 0.004133745 0.118740514
000230 06 a4 45 be 77 89 b9 3d 7e c1 68 bd c7 da 88 be
       -0.19300851 0.090594225 -0.056825154 -0.26729414
000240 2d d4 84 3d c2 3e 03 be 3c 01 17 bd c4 48 4e be
       0.06485782 -0.12816909 -0.03686641 -0.20144945
000250 9d 26 83 bc 03 ea 57 be c6 f6 60 bd 5d 4e 02 be
       -0.016009623 -0.21085362 -0.05492284 -0.12725206
000260 59 39 59 be cd f6 04 be 8d d6 9e 3d 5d c3 a5 3d
       -0.21213283 -0.12984772 0.07755766 0.08093903
000270 f9 a4 3d be c3 75 26 3e c7 06 68 3d 6f 04 17 3d
       -0.18519963 0.1625586 0.05664709 0.036869463
000280 f1 e4 8a bb 2c c1 89 3d 2f 21 1f 3d 4d ec 8c 3d
       -0.0042387177 0.06726298 0.038850006 0.06881008
000290 dc 4e 82 3d 1b 13 ce 3c 36 9b a3 3d 76 22 bd 3d
       0.063626975 0.025155595 0.079885885 0.092350885
0002a0 6a e1 c5 be 78 40 c9 39 98 96 ac 3e 57 0d da bd
       -0.3864854 0.0003838574 0.33708644 -0.106470756
0002b0 d5 f1 15 be ac a8 94 bd d5 d3 5b bd 99 cb 07 3e
       -0.14643033 -0.07258734 -0.053668816 0.1326126
0002c0 ab a9 64 3d 0f 49 b0 3d 2d de 6f 3e 93 06 46 3d
       0.05582587 0.08607685 0.23424597 0.048346113
0002d0 1a f8 72 3e 4a 02 35 be fa 78 f0 bd 6e b9 ae 3d
       0.23727456 -0.17676654 -0.117418244 0.08531462
0002e0 e0 94 8c 3d c1 6b 75 3d cc 0d 3f be ab 92 b9 3d
       0.06864333 0.059917215 -0.18657607 0.09061178
0002f0 6f 6d 70 3d 02 c7 e7 3d 66 5e 5b be 55 27 90 bb
       0.058698114 0.113172546 -0.21422729 -0.00439922
000300 05 14 7f 3d ef 8c 48 bd d3 e5 14 3d e3 d4 ba 3d
       0.06227495 -0.04896253 0.03635199 0.09122636
000310 bb 0c 54 3d ee c0 ed 3d a4 15 74 be f4 8b 25 3e
       0.051769953 0.11609064 -0.2383638 0.16166669
000320 ad 2f be 3c 27 55 65 be a0 c4 55 3e 7f 3b 56 be
       0.023216093 -0.22395764 0.20875788 -0.20921133
000330 1c 7e 8d 3d 01 1e 8c 3d 9f b4 df 3d ac de 9a 3c
       0.06908819 0.0684166 0.109231226 0.018905006
000340 c6 c4 c5 be 8a 52 9d bd a0 01 83 3e a2 a7 b4 3d
       -0.3862669 -0.07681759 0.25587177 0.08821036
000350 5d d3 82 3d a9 b2 df bb 59 96 88 ba 29 1f ba bd
       0.063879706 -0.006826718 -0.0010420784 -0.090879746
000360 93 32 e1 bd ed 89 ae 3d ae d6 6a be c2 f8 30 3e
       -0.109959744 0.08522401 -0.22933456 0.17282394
000370 e9 09 58 3d 55 ca f6 3d 6e b9 3d bd 8a 2f 47 3d
       0.052743826 0.120503105 -0.046319418 0.04862932
000380 e7 35 9c bd b1 46 8d bd 76 b0 28 3e 62 c9 77 3e
       -0.076274686 -0.06898249 0.16473565 0.24197915
000390 2a 1a b1 bd 71 4b 80 3d 86 b7 cc 3e 0c a2 c0 bd
       -0.086475685 0.06264389 0.39983767 -0.09405908
0003a0 c2 db 1f 3d 35 1e 0c 3d d8 eb 0f 3e 9a 70 7e 3e
       0.039027937 0.034208495 0.14054811 0.24847642
0003b0 9e e6 b0 be 97 e7 81 be 08 a8 dd 3d b6 17 8a 3e
       -0.34550947 -0.25372002 0.10823065 0.26971215
0003c0 ab 3b 17 be f0 5c 04 be 68 3d 86 bc 2b 76 25 3e
       -0.14768855 -0.12926078 -0.016386703 0.16158359
0003d0 3e 18 0c 3d 37 be 74 bd 67 dc ba bc 28 40 28 bc
       0.034202807 -0.059751716 -0.022810174 -0.010269202
0003e0 b1 33 45 be 54 51 73 3d 87 45 8c 3d d7 77 9a bd
       -0.19258 0.059403732 0.06849199 -0.07542389
0003f0 fc c0 8a 3c 3f 93 6c be 0b 78 88 be 32 03 42 bc
       0.016937725 -0.23103045 -0.26654086 -0.011841582

sigma_S.singlePeriodNets.0.linears.1.bias f4 [64]
000000 df f4 8d 3d 71 b6 88 3d 3f 8a c8 3d b3 5e 50 3d
       0.06931471 0.06675423 0.09791993 0.050871562
000010 48 f1 8f bd dd ad 17 3e 0c 58 e1 3c e8 e2 27 3d
       -0.070284426 0.14812417 0.027507804 0.04098788
000020 38 c3 f8 bd 8b 41 99 bd 1d df 0b be ba b3 88 3d
       -0.1214661 -0.074832045 -0.1365933 0.06674905
000030 1c ce fe 3a bc 22 1d 3d 80 5e 8f 3c 17 ba 97 bd
       0.0019440087 0.038363203 0.017501116 -0.07408541
000040 6d 1a a2 bd 47 67 30 bd 7a 0e 13 be b7 e4 20 bc
       -0.079151966 -0.043067243 -0.14360991 -0.009820155
000050 38 e4 a4 3d bd 41 42 3d 5d bc 16 3e 89 30 21 3b
       0.08051342 0.047425974 0.14720292 0.002459558
000060 26 70 61 bc 78 0f 15 3e 77 fc 15 bc f4 bc a3 3c
       -0.013759648 0.14556682 -0.009154431 0.01998756
000070 12 9c 70 bd 43 72 04 3e 63 0b 9e bd d8 33 e6 3d
       -0.05874259 0.12934212 -0.077170156 0.11240357
000080 a9 ee c3 3c 34 ed 02 3e 0d a3 e3 3d f9 f8 48 3b
       0.023917513 0.12785798 0.11115084 0.0030665977
000090 4d 74 88 3c fb 3b 32 3d 99 d9 10 3e fb 3c 5d 3a
       0.016657019 0.043514233 0.14145507 0.0008439568
0000a0 24 64 c1 3d 4c c6 e1 bc 3f bb c9 bd 9d c2 5f bd
       0.094429284 -0.027560376 -0.098501675 -0.054628957
0000b0 36 40 82 3d e2 45 82 bd 71 d2 c0 3c 2d cb 57 3c
       0.063599035 -0.06360985 0.023537846 0.0131709995
0000c0 1b b1 21 bd 06 1c a7 bc be aa 45 bc 02 ab fc bd
       -0.03947554 -0.020399105 -0.012064634 -0.12337305
0000d0 f8 d6 c8 b8 55 78 93 3d d0 2f c3 bc 03 94 91 bd
       -9.576784e-05 0.07200686 -0.02382651 -0.07108309
0000e0 ac 0c 82 3d f3 e8 42 bc 90 06 e8 bc dd cf 57 3d
       0.06350073 -0.01189636 -0.028323442 0.05268847
0000f0 af eb 6b bd c7 4a bd 3c 1a d1 54 bd 59 eb 8b 3c
       -0.057597812 0.023106946 -0.051957227 0.017079996

sigma_S.singlePeriodNets.0.linears.2.weight f4 [1, 64]
000000 a3 b1 92 bb 4c b8 0e 3e 33 d5 60 bd 61 c3 89 3d
       -0.0044767424 0.13937491 -0.054890823 0.06726719
000010 7c 86 55 3d fb cc 68 3e 2e 6e c6 3d b8 32 18 3f
       0.052130207 0.22734444 0.09688984 0.5945239
000020 7a 38 02 3b 2f 9f cc 3a 01 30 a4 3d f3 47 13 be
       0.0019870088 0.0015611405 0.080169685 -0.14382915
000030 7c b3 bb bc a7 f3 50 be eb d3 8b bd c2 dd 2c be
       -0.022912733 -0.20405446 -0.068275295 -0.16881469
000040 48 f9 84 be 43 3a 61 be da 0e d9 bd 5e 6d 69 3d
       -0.25971437 -0.21994881 -0.10598536 0.056989066
000050 dc 8c 1b be f0 c3 33 3e 0b b7 4f 3e 2d 1e a4 3c
       -0.15190452 0.17555213 0.20284669 0.02003392
000060 49 03 8e 3e 80 43 13 3d 97 1f 1f 3e b8 a1 13 3e
       0.2773688 0.035953045 0.15539394 0.1441716
000070 8e fa 90 3d a6 89 f1 be fe 3a 85 bd 63 fd 2b 3e
       0.070790395 -0.4717533 -0.065053925 0.16795878
000080 6d 9b 7c 3d c7 7a 6c 3e dc b4 38 be 98 07 c3 be
       0.061671663 0.23093711 -0.18037742 -0.3809173
000090 84 67 95 3c f3 48 a3 bc 91 f0 28 3d a3 65 66 be
       0.018237837 -0.019932246 0.041245047 -0.22499709
0000a0 1f bf e8 bd c6 c9 c3 bd 9f b1 37 3c f8 73 2a 3e
       -0.113645785 -0.095599696 0.011211782 0.16645801
0000b0 8e 99 bf 3e 82 b3 e9 3d 9a 7e eb bd 8a 82 bf 3d
       0.3742184 0.114111915 -0.11498757 0.0935107
0000c0 10 ae 40 be 97 dc 93 3e 16 f0 21 be d4 08 41 be
       -0.188164 0.28879234 -0.15814242 -0.18851024
0000d0 3e e3 67 3f b3 c2 7e be 5a d2 26 be e0 bc e4 bd
       0.9058112 -0.2487896 -0.1629118 -0.111688375
0000e0 5b b0 4d 3e a4 ed 0c be 21 b8 1f 3e 76 43 42 be
       0.20086806 -0.13762528 0.15597583 -0.18971047
0000f0 46 7f 81 3d db e4 81 3e 2d 6d 98 be 89 80 1d 3e
       0.063231036 0.25369915 -0.29770795 0.15381064

sigma_S.singlePeriodNets.1.linears.0.weight f4 [64, 3]
000000 bc 57 7e 3d 07 be e6 bc ce 9b 2b be 55 e1 8f 3b
       0.06209539 -0.028166784 -0.16758654 0.0043908753
000010 4f bf b1 bd 24 3e 6a be 3b 25 00 3d 44 b8 07 3e
       -0.08679067 -0.22875267 0.031285506 0.13253886
000020 f2 6b 80 be 44 06 08 3d 24 74 f8 3d 5a c9 1d 3d
       -0.25082356 0.0332091 0.12131527 0.038522102
000030 af 74 13 bd 50 e3 02 3e 9a 10 0e be 9f 43 a9 3d
       -0.03599995 0.12782025 -0.1387352 0.08264851
000040 70 06 1f 3e d8 41 31 be e5 48 cb 3c e8 60 0b 3e
       0.155298 -0.17310274 0.024815032 0.13611186
000050 4b c2 d8 3c c6 fc 5f be f2 c3 5c 3d 4b 9d 09 bd
       0.026459834 -0.21873769 0.053897806 -0.033597272
000060 59 db 32 3e 93 1a 11 3e 26 5d a1 3d 9d 20 71 3e
       0.17466487 0.14170294 0.07879095 0.23547597
000070 e2 b0 79 be b0 73 9d 3d ec 43 88 3d 3c 9b 71 3d
       -0.24383882 0.07688081 0.0665358 0.058985934
000080 e0 ea 05 b9 69 a0 05 be 5e 4e 4f 3e c7 c3 ed bd
       -0.00012771366 -0.13049473 0.20244738 -0.11609607
000090 75 7b e4 bd 55 1a 5c be 31 98 3c be d8 dd 90 3a
       -0.1115636 -0.2149442 -0.18417431 0.0011052443
0000a0 8e 8b ac 3c ed 48 45 3e 1d 6e d2 3d 4d 65 c2 bd
       0.021062639 0.192661 0.10274909 -0.09491978
0000b0 f5 fb 15 bd 39 f3 cf bd d1 85 a8 3e 3b cb eb bd
       -0.036617238 -0.10153813 0.32914594 -0.115133725
0000c0 a9 73 4c be 40 ea 11 be 92 70 63 be 64 10 2e 3e
       -0.19965996 -0.14249516 -0.22210911 0.1699844
0000d0 28 51 3f 3e 12 8c 2c be e5 bf 4c be 82 8d f4 bd
       0.18683302 -0.16850308 -0.19995077 -0.11941053
0000e0 0d 93 75 be a6 5d 8c 3e ad 69 89 3e 3e bb e2 3e
       -0.23981877 0.27415198 0.26838437 0.4428348
0000f0 35 b2 49 bd 0b c4 dc be 0a bb 22 be 29 36 71 bb
       -0.049242217 -0.4311832 -0.15891662 -0.0036805964
000100 10 88 3e 3e f8 aa 97 3e c6 cd 9b 3c 1c 1b 39 3e
       0.18606591 0.29622626 0.019019019 0.18076748
000110 44 a1 13 3c 98 45 f7 bd 92 91 6c 3b 9b b8 37 be
       0.009010617 -0.12073821 0.003609751 -0.17941515
000120 79 6d b9 3d 42 39 20 be 20 cf bc 3a 81 21 92 bd
       0.090540834 -0.15646842 0.001440499 -0.071352966
000130 d8 cb a6 bd 60 cf 63 bd 51 72 19 be b6 f1 fe 3d
       -0.08144349 -0.05561769 -0.14985014 0.124484465
000140 c7 0a 3e 3d d9 38 26 be 53 37 f2 be 54 0d 6a 3e
       0.046396997 -0.16232623 -0.47307834 0.22856647
000150 68 36 8d 3e ac 9f 86 3e 92 34 6f 3e 2f 71 88 be
       0.2758057 0.26293695 0.23359898 -0.26648852
000160 31 dd 91 3d 21 29 95 3c e7 53 ae 3e 24 00 aa 3c
       0.07122267 0.018208088 0.34048387 0.02075202
000170 4a 5a 9d 3d 0c e0 c4 3c 6f 82 28 bd f9 57 d0 bd
       0.07683237 0.024032615 -0.041140016 -0.101730295
000180 a7 f8 b0 3d 24 57 47 3e 8e 4b 22 3e 43 29 41 be
       0.08641177 0.19466835 0.15849134 -0.18863396
000190 56 6f be bb 7b ff 2d 3e a9 2d ec bd 95 16 19 3e
       -0.005811612 0.1699199 -0.115321465 0.1495002
0001a0 c1 20 1c 3e 7c dc 08 be e8 1c 9b be 7e 64 0f 3e
       0.1524687 -0.13365358 -0.3029549 0.14003178
0001b0 75 c6 48 3e da 67 99 3e 91 1c 10 3f 15 9d 19 be
       0.19606955 0.29962045 0.5629359 -0.15001328
0001c0 64 fc f2 be a4 bc fe 3d 81 14 fb bc 8b 88 8a 3e
       -0.47458184 0.12438324 -0.030649425 0.270573
0001d0 92 8e 98 be 9f cf 81 3e 54 a8 72 3e a4 f5 35 3d
       -0.29796273 0.25353715 0.23697025 0.044423714
0001e0 c0 3d 75 bd 24 d7 25 3e 13 28 0d 3e 0e 7b 67 be
       -0.059873343 0.16195351 0.13784818 -0.22605535
0001f0 9f 5f e3 3c 99 20 8f 3e 81 05 5c 3d fc 50 a0 be
       0.027755557 0.27954558 0.053716186 -0.31311786
000200 5e 8e 64 3d 92 42 b5 be fe ae b5 bd a9 e7 60 be
       0.055799834 -0.35402352 -0.08871268 -0.21963371
000210 2b 70 04 3e 62 2c 80 3e ab 4e 11 3e b3 08 b9 bc
       0.12933414 0.2503386 0.14190166 -0.022587156
000220 6c c8 86 be 8a ce 0d bd df 5f d7 3d 87 b0 a0 3e
       -0.26324785 -0.0346208 0.10516333 0.3138468
000230 6c 70 c3 3c 07 03 a9 3c ad 97 70 bd f6 0b 52 bc
       0.023857318 0.020631326 -0.0587384 -0.0128202345
000240 6d 55 a4 3d ac e8 52 3e f0 f2 cf be 2f 5e a1 3d
       0.08024106 0.2059657 -0.40615034 0.07879292
000250 17 27 1f be ef df 75 bb bd c6 6a bd 80 6b cd 3d
       -0.15542255 -0.0037517508 -0.057318438 0.100302696
000260 72 8f 22 3d 30 61 8d 3d 60 3b 7e be f9 7b b1 3d
       0.03968758 0.06903303 -0.24827337 0.08666224
000270 46 dc 35 be cc e6 26 be 34 20 94 3d e3 c5 d9 3d
       -0.17759809 -0.1629898 0.07232705 0.10633447
000280 ad 12 23 be e6 f5 22 bd 2e 75 61 3e 2f c6 20 3e
       -0.15925093 -0.03978529 0.22017357 0.15700601
000290 ec f8 18 bf ef ef 03 be 3f 8b 49 3e 0b c7 83 3e
       -0.59754825 -0.12884496 0.19682024 0.25737795
0002a0 10 c7 da 3c c5 ea 48 be af 82 a5 bc 23 b2 d8 3d
       0.026706249 -0.19620807 -0.020203916 0.10580852
0002b0 7e 8e 1d 3e 94 3f 81 3d bb 23 1b be 62 6b 93 be
       0.15386388 0.06310955 -0.15150349 -0.28792864
0002c0 10 8c b0 3b cb fa 11 3e 15 5a d6 be ba bd ed bc
       0.0053877905 0.14255826 -0.41865602 -0.029021133
0002d0 53 e9 f4 be b6 33 3e 3e 99 22 c4 3d 00 c1 70 bd
       -0.47834262 0.18574414 0.095769115 -0.05877781
0002e0 5c 0e c9 3d 26 1e 51 be ab db 68 bd 9d a3 3e 3e
       0.09817192 -0.20421657 -0.056850117 0.18617101
0002f0 c9 f8 9b bc 8f 2e 9e be 0a 18 72 be 1d 88 99 3d
       -0.019039528 -0.30894896 -0.23641983 0.07496665

sigma_S.singlePeriodNets.1.linears.0.bias f4 [64]
000000 9a 28 0f bf da 5e 08 3f 1f 66 d2 be 01 33 1c 3e
       -0.5592133 0.5326973 -0.41093537 0.15253831
000010 e9 32 ac be 23 58 5d 3e 05 73 a7 3e c7 af 57 3e
       -0.3363259 0.21615653 0.3270494 0.21063147
000020 85 c8 4a 3e d4 ef 10 be 5d 36 c1 3e ee 83 ad be
       0.19803055 -0.14153987 0.37736788 -0.33889717
000030 ee 57 9a 3e fe cb 87 3e 80 f3 6f bd 89 31 07 bf
       0.3014521 0.2652282 -0.05858183 -0.5280996
000040 fd b8 d9 be cb 69 e2 be 90 56 45 3e 71 a2 cb 3b
       -0.42523947 -0.4422134 0.19271302 0.006214433
000050 c4 4c 2f 3e e7 46 0b 3f e8 8f 8b bd 6d c2 9b 3e
       0.17119128 0.54405063 -0.06814557 0.30421773
000060 40 7c 01 3f 9e 13 09 be e4 b9 9e be 27 d3 15 bf
       0.50580215 -0.1338639 -0.31001198 -0.5852532
000070 d6 bc 2e 3d c7 6d b8 be 0d a9 9f be 1c c5 bc 3e
       0.042660557 -0.36021253 -0.31183663 0.36869133
000080 ff 67 64 3e da 51 8c be 14 1e 98 be f0 e1 95 be
       0.22305296 -0.27406198 -0.29710448 -0.2927394
000090 3d 4c ee 3e d3 e5 91 3d 68 10 f6 be 3e ba 7b bd
       0.4654254 0.071239136 -0.48059392 -0.06145691
0000a0 d3 7a 08 3f 43 2a c4 3e e9 f6 c0 3e 82 c4 23 be
       0.53312415 0.38313493 0.37688377 -0.1599293
0000b0 f1 13 0c be c0 3d 41 be 9f e8 44 3e 5c 96 18 3e
       -0.13679482 -0.18871212 0.19229363 0.14901108
0000c0 c2 55 e2 be 41 cc 7d bd cf 57 ca 3d 94 58 c5 3e
       -0.44206053 -0.06196237 0.098800294 0.38544142
0000d0 6f fe ca bd 64 e7 d4 3e 20 6b 90 be 5e 3d 74 be
       -0.099118106 0.41582787 -0.2820673 -0.23851535
0000e0 4b fa 37 3e 16 85 ae 3c 51 50 96 3e 95 28 0e be
       0.17966573 0.021303695 0.29358152 -0.13882668
0000f0 df 52 a2 3b 1e dd dc 3e 8d d4 e8 be 43 d3 eb 3e
       0.0049537267 0.4313745 -0.45474663 0.46059617

sigma_S.singlePeriodNets.1.linears.1.weight f4 [64, 64]
000000 54 3a 20 bd 28 f1 5d be b7 a0 2c 3e a1 86 74 bd
       -0.039118126 -0.21674025 0.16858183 -0.059698705
000010 e3 35 26 be b5 43 95 bd 25 25 a0 bd 5c f3 45 3c
       -0.16231494 -0.07288305 -0.07819585 0.012081947
000020 63 5a 18 bd 1f 54 c5 bd 94 72 04 3e d0 25 86 3e
       -0.037195574 -0.096351855 0.12934333 0.26200724
000030 ce 6b 48 bb 35 61 28 3e ea 88 20 3d cd da 7b bc
       -0.0030581835 0.16443332 0.03919307 -0.01537199
000040 b0 d5 be 3d a2 0b ea bc 2b 0e 42 3d 9c 1f c6 3c
       0.093181014 -0.02857 0.047376793 0.024184994
000050 0d dc 28 3d b2 3a e8 3c cc 85 eb 3d dd f6 9e 3e
       0.04122548 0.0283483 0.11500129 0.31047717
000060 b8 18 c0 3d 20 a3 e6 bd 2b aa 10 be 4c 94 0f be
       0.09379715 -0.112615824 -0.14127414 -0.14021415
000070 8e b1 44 3d 42 f8 cd 3d 99 f2 f7 3d bf 0a a4 bd
       0.04802089 0.10057117 0.12106819 -0.08009862
000080 1c 9e db 3d cb 4a 6e 3d d2 fc a2 3c 61 6d 7b 3e
       0.10723516 0.058176797 0.019895945 0.24553443
000090 f7 67 b7 bd d2 b6 82 be 03 ea 9a be 42 07 f5 bc
       -0.089553766 -0.25530106 -0.30256662 -0.029910687
0000a0 cf 58 10 bd 1c 07 83 bd d1 9e f4 3d d1 71 16 be
       -0.035240944 -0.063978404 0.11944354 -0.14691855
0000b0 b1 ea d7 3e 6d 7c 57 3d ed ea a0 3d 0e 78 61 bd
       0.42171243 0.052608896 0.078573085 -0.055046134
0000c0 79 f8 d3 3d 8a 48 b8 3e d2 00 23 3d 2c 3a 88 3e
       0.10350127 0.35992843 0.039795704 0.26606882
0000d0 0c d7 fc bd 78 b1 14 3e 69 4d 96 bd 29 e1 23 be
       -0.123457044 0.14520824 -0.073389836 -0.1600386
0000e0 0d 5c 0d be ae c3 ab bd 87 63 b8 bd b1 b4 4e 3e
       -0.13804646 -0.08386932 -0.09003358 0.20186116
0000f0 de c5 60 3e 70 72 30 3e 71 2e c7 bc 3c c8 26 be
       0.2195048 0.17231154 -0.024314137 -0.16287321
000100 0a 45 1d bb a8 7a de 3d ba f3 c0 3d da f0 5d be
       -0.002399745 0.108632386 0.09421487 -0.21673909
000110 70 73 86 3e b8 53 80 bd 8b 14 c4 3d c0 e4 a3 3d
       0.26259947 -0.06265968 0.09574231 0.08002615
000120 4a b4 a8 3d e0 86 43 3e 74 2d a6 3d 83 f3 0b bd
       0.082375124 0.1909442 0.08114138 -0.034167778
000130 c4 d1 52 3e 7c 56 52 bd ac c1 2e bc 5b 13 11 be
       0.20587832 -0.05135201 -0.010666292 -0.1416754
000140 3b b0 50 be 9c 2c 28 3d b9 e0 b9 3c e1 6f 0d 3e
       -0.20379727 0.041058168 0.022690164 0.1381221
000150 96 2f e7 3d 02 e6 e8 bc 5f 79 1a 3e 68 e9 21 bd
       0.11288373 -0.028429989 0.15085362 -0.039529234
000160 1b 4b 15 3d 0d 8a 43 bd 7d 50 28 bd 4d 3c 70 bd
       0.03644858 -0.047739077 -0.041092385 -0.058651257
000170 a9 18 79 be 8c d3 aa bd ec 92 62 3d 0c 96 0e 3e
       -0.24325813 -0.083411306 0.055315897 0.13924426
000180 19 a9 0c 3c 69 27 ef 3d 17 bb 0b 3e ad ff 75 bd
       0.008585238 0.11677439 0.13645588 -0.060058285
000190 71 3d 6a be d5 a5 7d bb 6b 7b 8f bd aa d0 5f bd
       -0.22875 -0.003870358 -0.07005962 -0.054642357
0001a0 da 77 dc 3d 4a f5 64 3c 65 eb 7e 3d 5d f5 90 3d
       0.10765047 0.013974497 0.06223621 0.07078049
0001b0 72 d1 f1 3e 64 53 1f bd ec 04 20 3e b2 05 b4 bd
       0.47230107 -0.038897887 0.15626878 -0.08790149
0001c0 51 93 8b bd da 23 6a 3e 46 c7 8d 3d a1 20 61 bd
       -0.06815208 0.22865239 0.06922774 -0.054962758
0001d0 01 30 76 bd 1f fb e7 3d 32 06 b1 3e 12 80 57 3d
       -0.060104374 0.113271944 0.3457504 0.05261237
0001e0 8b b5 dd 3d d9 a8 e5 bc 53 4b a3 3e be 86 0c 3d
       0.10825642 -0.028034614 0.31893405 0.034308188
0001f0 f4 84 68 bd 5c 5e 0f 3e 17 81 a6 bd 19 b7 b5 bb
       -0.05676742 0.14000839 -0.08130091 -0.0055455086
000200 2e d9 0b 3d 1f 00 c0 bd a4 18 6e 3e e6 22 fd 3b
       0.034142666 -0.09375023 0.23251587 0.0077251075
000210 be f5 46 3d 37 b8 13 3e 97 28 11 3e 5b b4 47 3e
       0.0485742 0.14425741 0.1417564 0.19502394
000220 dd b4 a3 be 8e cd 7e be 6b 0c 2d 3d 0a 7d cd bd
       -0.31973925 -0.248831 0.04224817 -0.10033615
000230 dc 06 2d be a9 bd a4 bd 94 7d a5 bd 57 3a f7 3d
       -0.16897148 -0.08043987 -0.08080593 0.12071674
000240 27 50 63 bd 6a 6f 16 3d 3b 07 46 3e 42 35 92 3e
       -0.05549636 0.036727346 0.19338696 0.28556257
000250 42 1c 18 3e 3d c6 9f 3d da 61 e1 3d e1 89 df bd
       0.1485453 0.07801483 0.11004992 -0.1091497
000260 6a ef 0f 3e be 54 7a bd 8e d8 4e 3c 3f 56 db 3d
       0.14056173 -0.061115973 0.012624873 0.107098095
000270 e8 37 0f bd a0 16 b0 bd 96 02 e4 bd 52 55 86 bd
       -0.034965426 -0.085980654 -0.11133306 -0.06559242
000280 fe f8 7c bd 1b 46 0e 3d 45 0c 47 bc d7 6d 33 bc
       -0.061760895 0.034734827 -0.012148921 -0.010951481
000290 20 b9 f4 3d dd 14 12 bd 09 e9 83 3b 2e 73 5d 3d
       0.11949372 -0.035664428 0.0040255827 0.054064922
0002a0 93 87 26 be 88 af 04 be 9e da 6c be ab 25 43 bd
       -0.16262655 -0.12957585 -0.23130271 -0.047643345
0002b0 9a 48 95 be 20 96 42 3c a1 05 13 3d 6d 30 b6 bc
       -0.29156953 0.011876613 0.03589404 -0.022239888
0002c0 df 23 01 be 5d d0 3c 3d 19 73 9c bd 9e 16 40 3d
       -0.1261134 0.04609715 -0.07639141 0.04689657
0002d0 eb 4c 72 3e 3c b1 32 bd df b4 23 be 99 b2 44 3e
       0.23662154 -0.043626055 -0.15986966 0.19208755
0002e0 a7 c6 d8 bd 9e 26 7d 3e e3 41 51 bd 20 6d d4 3d
       -0.10584765 0.24721763 -0.051088225 0.103723764
0002f0 ab 12 04 be 1a 6b d5 3d f6 d0 63 3e 10 e6 11 3e
       -0.12897746 0.104208186 0.22247681 0.14247918
000300 6e 9c 22 be 9c ee 87 3d 73 e4 b0 3d 39 cd 31 3d
       -0.15879986 0.06637308 0.08637323 0.043408606
000310 fd 6e c5 bd 2c 8b 94 bb 7d 56 f1 bc 1b 77 51 be
       -0.0964031 -0.004533192 -0.029460186 -0.20455591
000320 a0 9f 8a 3c 7d a5 b6 3d e2 d8 f5 3d c9 ee 86 3d
       0.016921818 0.08918283 0.12004258 0.065885134
000330 80 90 a0 3d 2d 2d b1 3d e0 e2 11 be ba 17 db bd
       0.07840061 0.08651195 -0.14246702 -0.10697885
000340 cb 38 4a 3d 6f 65 bb bb 10 cf 72 be 84 51 f5 3c
       0.04937057 -0.005718879 -0.237118 0.029946096
000350 37 a3 15 3e 7c 90 1f 3c 7c 40 0d 3e a8 73 fd bd
       0.14613043 0.009739038 0.1379413 -0.12375575
000360 73 ed 99 3d d1 19 b0 3e 85 2b 4f 3e 69 74 85 be
       0.07515993 0.34394696 0.20231445 -0.26065376
000370 db 70 15 bc 27 91 f2 3c e9 03 26 3e f6 9b b2 bd
       -0.009121145 0.02961023 0.16212429 -0.087211534
000380 9b b3 bd 3d 77 83 91 3d a3 c2 9a 3a 85 0e 12 bc
       0.09262773 0.07105153 0.0011807274 -0.008914595
000390 bf b4 3b be 76 72 91 3c 77 05 ba bd ed 49 2f bd
       -0.18330668 0.017754775 -0.090830736 -0.04279511
0003a0 68 82 53 bd 0b 2c a8 be 4e fe 02 bc 7e 49 6d bc
       -0.051638037 -0.32846102 -0.007995201 -0.014482854
0003b0 25 02 d8 3e e7 7e b3 bd 87 c7 4b 3d f3 17 4f bd
       0.42189136 -0.08764439 0.04975083 -0.05055995
0003c0 26 c5 16 3e ec 99 ae be 0f bb 8c 3c 03 b4 26 be
       0.14723644 -0.34101808 0.01717904 -0.16279607
0003d0 da f3 8e 3d 3e 0b bf 3d 08 12 91 3e a7 0d 25 3e
       0.06980105 0.09328316 0.2833407 0.16118489
0003e0 7a f1 11 3e 8b 23 05 3d 4b d8 39 be d7 7b 7b 3d
       0.14252272 0.0325046 -0.18148915 0.0613974
0003f0 e1 2f 46 3d 11 7e 22 be 50 3e cb bd b0 43 46 3d
       0.048385505 -0.15868403 -0.099239945 0.048404396

sigma_S.singlePeriodNets.1.linears.1.bias f4 [64]
000000 bc 79 0a bd 3a 03 98 3d fb 4a ae 3d c8 f7 a4 3d
       -0.0338075 0.074224904 0.08510395 0.08055073
000010 5d f3 c7 bd 43 59 07 3e c1 48 05 3d 8c 3f be bb
       -0.09763215 0.13217644 0.032540087 -0.005805915
000020 32 b7 f8 3b b7 96 c5 bd cc 30 b5 bd 15 d0 cd 3d
       0.007590198 -0.09647887 -0.08847198 0.10049454
000030 4f ef 24 bd 8f 9a ef bd aa be 7b 3d 0e 3c eb 3d
       -0.040267285 -0.116994016 0.06146113 0.11486064
000040 34 a1 00 bd 3a 04 0c bc a5 39 6f 3b cc d1 55 bd
       -0.031403735 -0.00854593 0.0036502865 -0.05220203
000050 81 54 b1 bd f4 95 97 3c 35 67 17 bd 78 b1 f3 bd
       -0.08658696 0.01850412 -0.03696366 -0.11899084
000060 e6 1b 11 3e 4b 84 3b 3c 3f 31 01 be 98 20 90 bb
       0.14170799 0.011445115 -0.12616442 -0.0043984167
000070 0b 2c 03 bd 93 e7 cb 3d 54 61 01 3d 6f f4 04 be
       -0.032024425 0.09956279 0.03158696 -0.12983869
000080 ec 9c 12 be 8e 1e 15 3e 68 b5 68 bd 82 01 b1 bd
       -0.14317673 0.14562437 -0.056813627 -0.08642866
000090 be a4 88 bd 79 87 42 bd df 25 6e bd aa 82 39 bc
       -0.06672047 -0.047492478 -0.058141585 -0.011322657
0000a0 42 33 e3 bb 7a be c1 3b f5 c0 16 3d f1 ce cf 3d
       -0.0069336006 0.005912599 0.036805112 0.10146893
0000b0 2f be e2 bd c6 5e 2a bd b8 e2 aa 3c 77 4a d9 3c
       -0.11071431 -0.04159429 0.020860061 0.026524765
0000c0 85 7b d1 3d 14 13 e3 3d 48 80 d8 3b 2a 74 ce 3d
       0.102286376 0.11087623 0.006607089 0.1008075
0000d0 bf b5 12 bd 83 f1 7b 3c ea bd c0 3d 8d 10 2c 3d
       -0.035817858 0.015377405 0.09411223 0.04200797
0000e0 62 a1 b4 bd 26 37 c8 3c fd 72 8a bd 58 b3 88 3d
       -0.08819844 0.02444036 -0.067602135 0.06674832
0000f0 92 2c be 3c bc ff 04 3d 54 f1 f1 3d a5 69 e0 bd
       0.023214612 0.03247045 0.11813608 -0.1095765

sigma_S.singlePeriodNets.1.linears.2.weight f4 [1, 64]
000000 64 8a 08 bd 34 c2 e0 be e5 ce e3 3d c4 24 00 be
       -0.033335105 -0.43898165 0.111234464 -0.12514025
000010 bb 5c 5e 3d ce a7 f0 3c c0 4f e8 bd c9 cb 1a be
       0.054287653 0.02937689 -0.11343336 -0.151168
000020 0e 7e 75 3e b5 0c a0 bd e0 97 03 3e 0d c5 52 be
       0.23973867 -0.07814924 0.12850904 -0.20582981
000030 ba 60 c4 be 40 47 86 be 0d 49 ef 3d ba 06 d8 3d
       -0.38355047 -0.26226234 0.11683855 0.10548158
000040 13 06 b7 3d 5f 2e 31 bd 7b b8 ab bd ea f0 34 be
       0.089367054 -0.043257114 -0.08384796 -0.17670026
000050 8f cc 37 be 5d 48 a8 3e fd ac 6e be c5 aa 58 3e
       -0.17949127 0.3286771 -0.23308177 0.21158893
000060 bf 02 e3 3d 29 bc 31 be d2 53 9d bc 08 c0 93 be
       0.11084508 -0.17356934 -0.019205008 -0.28857446
000070 6d 15 ad be 73 ab cd 3d d7 93 5b bd 85 75 e7 be
       -0.3380541 0.10042467 -0.053607788 -0.45206848
000080 59 01 7e 3d 9a 12 37 3e 20 fb e0 3e b0 d6 81 bd
       0.062013004 0.1787819 0.43941593 -0.063397765
000090 36 19 61 be 2b 25 81 3e dd 97 5c be c3 c7 5e 3e
       -0.21982273 0.2522367 -0.21542306 0.2175589
0000a0 4a 5d 5a be 7d 06 cf 3d 66 e8 a2 be 33 00 c9 bc
       -0.2132465 0.101086594 -0.3181793 -0.024536228
0000b0 a6 15 e1 bc c9 4e 8a 3c 36 c0 f6 3c b3 8e ff 3d
       -0.027476143 0.01688327 0.03012095 0.124783896
0000c0 cf 3b cf 3d f1 0d 1a be 36 bd 28 bd c2 14 4d be
       0.101188295 -0.1504438 -0.04119607 -0.2002745
0000d0 5e dd a8 be 5d 45 6d 3d f6 75 4b 3e 17 0f 9f be
       -0.3298139 0.057927478 0.19869217 -0.310662
0000e0 3f 82 69 be c0 a5 45 3d ed e3 08 3e ca 41 03 be
       -0.22803591 0.048253775 0.13368197 -0.12818065
0000f0 86 7d 8d 3c ec 9a 2a be f8 18 ea 3d d3 7b 8b 3e
       0.017271768 -0.1666066 0.11430544 0.27242908

sigma_S.singlePeriodNets.2.linears.0.weight f4 [64, 3]
000000 ba 5a 6a 3e 54 b2 1a 3e 9e 01 3b 3e c6 e3 51 bd
       0.22886172 0.1510709 0.18262336 -0.051242612
000010 32 b4 28 3e e6 b3 1f bd af 28 ed bc 46 be a1 be
       0.16474989 -0.038989924 -0.028950064 -0.3159048
000020 c3 57 69 be fa 37 6a bc e5 e8 f2 3b b1 09 ce 3e
       -0.22787385 -0.014295572 0.007413017 0.4024177
000030 2f 1d 3e 3d 2e 9c f3 3d bd a7 c1 3e 37 de 31 3e
       0.04641455 0.11895023 0.37823287 0.17369924
000040 22 60 b4 3d 81 a3 22 3d 11 31 40 be b7 5c f3 bd
       0.088073984 0.03970671 -0.18768717 -0.11882918
000050 f8 34 0d 3e ea 8d 30 3c 6b ba ff bd 24 f6 72 bd
       0.13789737 0.010776022 -0.12486728 -0.05931677
000060 35 eb 80 3e cf 7d 80 3d 43 a0 97 3e d9 e2 ae 3e
       0.2517945 0.06273996 0.29614457 0.34157446
000070 a3 98 c3 3e 6f 25 a5 be 95 2d d7 bc 17 f7 1c 3d
       0.3820239 -0.32255122 -0.026266852 0.03832158
000080 e1 81 1c be 26 ff 95 3e 19 88 89 3e bf d6 b3 be
       -0.1528392 0.29296225 0.26861647 -0.35124776
000090 e5 ea 13 be e5 d0 87 3e 41 5f 3b be ab 2c df 3e
       -0.14445074 0.2652656 -0.18298055 0.43588766
0000a0 ec f3 96 3d 14 52 07 3d 24 c7 73 be 90 5c 2a 3e
       0.07370743 0.03303726 -0.23806435 0.16636872
0000b0 7d 6a 09 3e 4e 63 51 be 55 b6 9d be 30 d9 57 3e
       0.13419528 -0.20448038 -0.3080317 0.21078944
0000c0 6f d6 b0 bc aa 4c ea bd 52 31 86 be a8 90 bd bd
       -0.021586625 -0.11440404 -0.26209503 -0.092561066
0000d0 d1 e2 8e bd c9 45 33 bd d6 84 01 be d8 1b 97 3e
       -0.069768555 -0.043767724 -0.12648329 0.2951343
0000e0 38 c1 5f bd 96 e5 74 3e 86 71 09 3e 7f 44 af be
       -0.054627627 0.23915705 0.13422212 -0.34231946
0000f0 e5 de 8b 3e 80 60 a0 bc 38 5f 94 3e f2 fc df be
       0.27318493 -0.019577265 0.28978896 -0.4374767
000100 d4 c7 f8 3c 4c ff 52 be ba f5 04 3e 7a 34 c5 bd
       0.030368723 -0.206052 0.12984362 -0.0962915
000110 e5 a7 55 be c8 64 40 bd 2d 2e 27 3e fb c9 c7 3d
       -0.20864828 -0.046971112 0.16326208 0.097553216
000120 5b 98 00 be fc 5a 05 be 03 71 97 be e2 70 db bb
       -0.12558119 -0.13022989 -0.2957841 -0.0066968063
000130 fd 05 62 bb d2 9f f3 3e df dd 88 bc ef c0 e4 bd
       -0.0034488433 0.4758287 -0.016707359 -0.11169612
000140 a9 cc 2a be 45 17 6c bd 85 49 16 be bd 6d 88 3d
       -0.16679634 -0.05763938 -0.14676483 0.06661556
000150 68 50 81 3e 81 ef 30 3e d4 1f 72 3e f5 19 44 be
       0.25256658 0.17278863 0.23644954 -0.19150527
000160 45 cb d9 bd 89 03 65 bc 7f f0 40 be 79 f8 9f 3e
       -0.10634474 -0.013977894 -0.18841742 0.31244257
000170 1d e2 af bd 81 81 00 be cd 8a 9f 3d b0 02 e0 bd
       -0.085880496 -0.12549402 0.07790146 -0.109380126
000180 a9 04 03 bd e9 e2 39 3e 0b 19 bc 3e d6 69 2f 3e
       -0.031986866 0.18152966 0.36737856 0.17130217
000190 a4 d3 03 bd ef fc 81 bd 47 c4 a2 3d 42 c4 9e be
       -0.032184258 -0.063470714 0.07947593 -0.31009108
0001a0 75 e5 25 be e6 77 59 be 28 ba b2 3e 8c 0e c5 3d
       -0.16200812 -0.21237144 0.3490765 0.09621915
0001b0 a4 a5 12 bd b0 9d 48 bd 26 4d 79 bd 5d b6 a7 be
       -0.0358025 -0.048978508 -0.06086459 -0.3275632
0001c0 ea e4 b8 be a3 77 aa bd ce 87 e7 3e ea 46 b1 bb
       -0.36112148 -0.083236 0.45220798 -0.005410065
0001d0 56 7f af bd e3 03 8c 3d 6c cd de bb 1c bc 03 be
       -0.08569209 0.06836679 -0.0067993905 -0.12864727
0001e0 2a df f2 bc 2c 70 a2 bd 77 f8 31 3e 44 27 fd bd
       -0.029647429 -0.07931551 0.17379938 -0.12361005
0001f0 ff 80 93 3d 7e 23 fc 3d 04 d9 1f bd 36 c8 0e 3d
       0.072023384 0.12311457 -0.03902532 0.034858905
000200 ca 96 64 3e f6 df 84 3e 46 bc 92 3e 43 58 2a 3e
       0.22323146 0.2595212 0.28659266 0.16635232
000210 d5 b7 13 3d 2b 16 d3 3d 8c 9b 0a 3e 5e 41 7d 3d
       0.036063988 0.103069626 0.13535899 0.061829917
000220 6e ab 05 3d db ba 7b bc ba 36 15 be d8 f0 bc 3d
       0.03263419 -0.015364374 -0.14571658 0.09225625
000230 13 47 51 bd 37 99 81 be 0c a3 dd bc dd da 55 be
       -0.051093172 -0.25312206 -0.027055286 -0.20884271
000240 f5 51 06 bd 29 db 57 be d8 44 7b bd 91 5b 4c be
       -0.032793004 -0.21079697 -0.06134495 -0.19956805
000250 4c 9d 7c 3e 1c 0e b9 3d 41 b1 9b be 1c f4 91 be
       0.24669379 0.09035894 -0.30408671 -0.28506553
000260 54 9b 81 3d 17 1f 6c bd a2 8d 55 3e 84 8f 34 be
       0.063284546 -0.057646837 0.2085481 -0.17632872
000270 bc 3b 1f be ba 70 62 3d d9 d8 ab bd bf f7 07 bd
       -0.1555013 0.055283286 -0.0839097 -0.033195253
000280 2a 12 9c be a7 bb 92 3d 66 e9 b2 3d 95 21 2c bd
       -0.30482608 0.07164698 0.087359235 -0.042024214
000290 eb dd be 3e 2b 03 d8 bd 67 6f a4 bd bc 46 33 be
       0.37278685 -0.10547479 -0.08029061 -0.17507452
0002a0 06 c1 86 3e 50 43 75 3e f1 c7 0b 3e 0e b0 0b be
       0.2631914 0.23951459 0.1365049 -0.13641378
0002b0 b6 5f c6 3d 48 d1 7c be 7a ee 8e bd ec 36 be 3d
       0.09686224 -0.2468921 -0.069790795 0.09287819
0002c0 b4 a6 a9 bd bf 3d 00 3e 7f 9b 4f bd 09 0f 55 bc
       -0.08283749 0.12523554 -0.050685402 -0.013004073
0002d0 78 ad 0b 3d fe 3b 4a be 63 c3 df bd 77 3f 3f 3e
       0.03410098 -0.19749448 -0.10925939 0.18676554
0002e0 3a ca 5a 3d 55 ac 6d 3d 7c 0d b1 3d f7 85 0c 3e
       0.053415515 0.058025677 0.0864515 0.13722979
0002f0 b4 b4 10 be 4f 64 5b 3c 88 5b 45 be 54 ec 9b be
       -0.14131433 0.013390615 -0.19273198 -0.30453742

sigma_S.singlePeriodNets.2.linears.0.bias f4 [64]
000000 18 e6 02 3f 17 39 91 be e4 1c 26 3e c6 56 7d 3e
       0.51132345 -0.2836387 0.16221958 0.24740133
000010 d1 25 0c 3f 0c 20 17 3e 48 83 20 3e 1e 90 c5 3e
       0.54745203 0.14758319 0.1567508 0.38586515
000020 0e 48 bd 3d 06 01 a4 3e 7a 5c 24 be 13 b0 f3 3e
       0.09242259 0.3203203 -0.16050902 0.4759527
000030 e4 80 06 be 14 a4 28 3e 8f 5c 83 be 86 91 99 be
       -0.13135105 0.16468841 -0.25656554 -0.29993838
000040 c1 d2 b5 be 9c e8 6f be da 0c 64 bc 05 03 10 bf
       -0.35512355 -0.23428577 -0.01391908 -0.5625461
000050 fc d9 c4 3e 14 c3 2b be ae fd 05 bf 9c 1c 11 3f
       0.3844756 -0.16773635 -0.5234021 0.5668428
000060 04 8c df be 3c b3 2b 3e 94 0a eb 3e b8 83 ec be
       -0.4366151 0.16767591 0.45906508 -0.46194243
000070 70 fb 44 3e 28 a9 97 bc 33 b0 8b bd bf 68 00 bf
       0.19236541 -0.018513277 -0.06820717 -0.5015983
000080 99 16 c1 3e f4 da 04 3f ee b2 a3 3e 69 c7 a5 3c
       0.37712553 0.51896596 0.3197245 0.020236688
000090 cc 25 50 3e 36 db 0d bf 0f c6 b1 3e fc 57 3d 3e
       0.20326918 -0.55412614 0.3472142 0.18490595
0000a0 ac 2d e2 3e 10 28 73 be e1 0d f1 be a3 ce 84 3e
       0.4417547 -0.23745751 -0.470809 0.259389
0000b0 84 0b 09 bf 98 c3 09 3f f7 9b 2d 3e 3d a8 83 be
       -0.53533196 0.5381408 0.16954027 -0.25714293
0000c0 f0 d2 f7 3e 72 60 d7 be a3 62 94 bc 7a e6 01 bf
       0.4840312 -0.4206577 -0.01811344 -0.50742304
0000d0 3b a2 b1 be 07 aa ef be 30 68 e9 be d0 c4 f4 3e
       -0.34694085 -0.46809408 -0.455873 0.47806406
0000e0 d2 e8 10 3f 48 5a cf be 80 31 e2 bd 41 69 c9 be
       0.56605256 -0.40498567 -0.110445976 -0.39338115
0000f0 1c 2d 5a 3e 2d 81 4b bd d6 ef 80 bb 54 ce db 3e
       0.2130627 -0.04968374 -0.0039348407 0.42930853

sigma_S.singlePeriodNets.2.linears.1.weight f4 [64, 64]
000000 ce f8 ff 3c 6a 76 78 bd 0a 34 88 3e c3 c1 52 3c
       0.031246569 -0.060659803 0.26602203 0.012863579
000010 d8 44 2e bc 8a 7c 97 bd 4b 58 3a be 55 f4 23 be
       -0.010636531 -0.07396801 -0.18197744 -0.16011174
000020 c4 98 87 3e d2 d9 91 bd a3 ef ec 3d 1c 7c aa 3c
       0.26483738 -0.07121624 0.115691446 0.020811133
000030 d4 52 e3 3d e0 ba 80 be fd ec 7b be a0 b2 12 be
       0.110997826 -0.25142574 -0.24602123 -0.14325953
000040 76 77 07 bd 9c b4 9a bd 26 00 31 be d1 cc 9e bd
       -0.03307291 -0.0755398 -0.17285213 -0.077539094
000050 64 df ec bd ba dd 9c 3d d7 65 4f 3d 29 95 67 bd
       -0.11566046 0.076594785 0.05063423 -0.056538735
000060 dc c5 0f be 24 72 8e bd 05 30 5a be ed af d6 bc
       -0.14040321 -0.06955364 -0.2130738 -0.026206935
000070 17 b7 1a be 41 03 8d be 29 b2 e4 3b 12 ec 22 be
       -0.15108906 -0.27541545 0.006979246 -0.15910366
000080 7b 4e 35 be 37 f8 c6 bc 56 1e 52 bd 00 08 69 be
       -0.17705719 -0.02428828 -0.05129846 -0.22756958
000090 fc 35 4d bc 3b f9 d8 bd d3 9c 34 3e 17 d3 f1 bd
       -0.012525078 -0.10594412 0.17637949 -0.1180784
0000a0 3b ae 8b 3e 0b 19 a7 3c 9b 27 d9 3d be 04 88 3d
       0.27281365 0.020397684 0.10603257 0.066415295
0000b0 d8 e1 cd 3d 34 6c 58 3d ff 4b dd bd fb cd 01 be
       0.10052842 0.052837566 -0.10805511 -0.12676232
0000c0 7c 0c ae 3d 1b 57 07 bd 5e c1 ec bd 10 f6 21 be
       0.08498475 -0.033042055 -0.11560319 -0.15816522
0000d0 dd 7f d3 3c 91 21 17 3e ef 68 02 be 2b 29 c0 bd
       0.025817806 0.14758898 -0.12735341 -0.09382852
0000e0 a0 5a b0 3e b9 ac 73 bd b0 43 26 bb 77 c9 03 be
       0.3444414 -0.059490893 -0.0025369935 -0.12869821
0000f0 4b 0e b9 3d f1 d3 b5 3c 38 34 cc bd 7c 8a 8e bd
       0.09035929 0.022195788 -0.099708974 -0.069600075
000100 ba 99 07 bd 13 96 3c 3e 50 48 60 3e 19 9f 93 3d
       -0.03310559 0.18416624 0.21902585 0.0720808
000110 7b 45 d9 bc 6b 96 5b 3d 81 75 58 be 70 e9 c8 bd
       -0.026522389 0.053610247 -0.21138574 -0.0981015
000120 15 f9 ed 3c c4 20 fb 3d a4 05 fe 3d b3 f1 fb bb
       0.029049436 0.12262109 0.124034196 -0.007688725
000130 2c 2b f2 bd d8 2e 91 be 61 9e f3 3c f0 5d b7 3c
       -0.11824641 -0.2835605 0.029738607 0.02238366
000140 9a 08 0c be fd 6c 9c bd 8c 63 17 be db f3 47 bd
       -0.13675156 -0.07637975 -0.14784068 -0.048816543
000150 97 eb 74 bd 4b 67 f5 3d a3 95 7a 3d 72 20 e3 3c
       -0.05979499 0.11982592 0.06117786 0.027725432
000160 81 d2 b1 bd a9 f9 9d 3d a6 1f a7 3c 50 ef 15 3e
       -0.086827286 0.077136345 0.020400833 0.14642072
000170 87 ee 0a 3e c5 de ab 3d 8c 9b 5f bc 83 b5 71 3e
       0.13567553 0.08392099 -0.013647925 0.23604397
000180 de 9a 72 3e c5 45 4e be 6d 52 30 3d d3 d3 d4 bc
       0.2369189 -0.20143802 0.043047357 -0.025979912
000190 47 c8 e7 bc fc cf ad 3d f1 2f 97 bd 43 c2 26 3e
       -0.028293742 0.084869355 -0.07382191 0.16285042
0001a0 da e0 82 be 64 da 29 be c2 84 83 3d 3b ac dc bc
       -0.25562173 -0.16587216 0.06421806 -0.026937595
0001b0 26 65 8b 3d f3 d4 93 bd 1e 8b 8d 3d 72 68 f3 bd
       0.06806402 -0.07218351 0.069113 -0.11885156
0001c0 65 29 95 bb f6 e0 2b 3e 5c 93 92 3d 3e b8 ff bd
       -0.0045520538 0.16785035 0.07157013 -0.12486313
0001d0 1b d6 90 3d 22 0a 91 3d cd 90 68 3e 6b f9 f5 3d
       0.070720874 0.07082011 0.22711487 0.12010463
0001e0 9a 4d f4 bd 6b 36 f8 3b a8 96 d0 bd 38 b2 13 bd
       -0.11928864 0.0075748465 -0.101849854 -0.036058635
0001f0 0d 93 d0 bb 4d f1 58 3e b4 59 46 bd 0d fb 43 bd
       -0.006365186 0.21185799 -0.04842539 -0.047846843
000200 d7 3e e8 3d 87 5a 03 3e 0c 0e a5 bc da b5 7b 3d
       0.11340111 0.12827502 -0.0201483 0.061452724
000210 30 74 20 be 37 84 17 be c4 fa ab 3c dc fd 02 3e
       -0.15669322 -0.1479653 0.020993598 0.12792152
000220 59 cf 19 3e 49 f6 88 3d 15 b8 28 be cf 88 bb 3e
       0.15020503 0.066876 -0.16476472 0.36627814
000230 93 88 31 3e 71 3d a2 bd 37 38 6a bd cc da cf 3d
       0.17337255 -0.07921875 -0.057182517 0.10149154
000240 40 7d 4c be 85 89 15 3d 33 ad 14 bd af 76 56 3c
       -0.19969654 0.036508102 -0.03629799 0.01308982
000250 8e ac fb 3d f7 03 f0 3b a0 58 3f bd 25 56 62 3e
       0.122887716 0.0073246914 -0.04671538 0.22103174
000260 89 d3 b9 3d 31 6a 0d 3b ca ce 25 be 4a b0 e7 3c
       0.0907355 0.0021578188 -0.16192165 0.028282303
000270 bc 5a 6e bd 8e 83 b5 3d 5f 2b f8 bd 5a 50 fe 3d
       -0.058192 0.08862983 -0.121176474 0.124176696
000280 49 0d 4b 3e e3 77 55 3c bb ce f3 bd b6 69 95 bb
       0.19829287 0.0130290715 -0.11904665 -0.004559721
000290 91 7c 59 be 78 c9 d0 3d 1f 83 26 3d d8 c1 2c 3d
       -0.21238925 0.10194677 0.04065239 0.04217705
0002a0 c0 35 bf 3d ff db c3 3d c7 7f 31 3e e0 a1 6f 3e
       0.09336424 0.09563445 0.173339 0.23401594
0002b0 6c ab 24 3e fb 81 27 3d f9 b8 29 bd 4e f7 bb bc
       0.16081017 0.040895443 -0.04143617 -0.022945073
0002c0 d2 be 55 3e 9d 6e bf 3d d1 f7 47 be c9 98 30 3d
       0.20873573 0.0934727 -0.19528128 0.043114457
0002d0 a4 72 91 3e c8 a0 82 bb 46 2f 1b be 35 fc 0c 3d
       0.28407776 -0.003986452 -0.15154752 0.03442021
0002e0 0d 3f e3 3d ba 16 23 3d 42 00 aa b8 c9 e3 8f 3e
       0.1109601 0.039816596 -8.10628e-05 0.28103474
0002f0 7a 39 90 bd 80 61 09 3e df e9 89 3e d1 b2 7f 3d
       -0.07042213 0.134161 0.26936242 0.062426392
000300 2b ac 26 3e 45 fc 07 bd 03 d0 a9 bd de 8e b9 3d
       0.16276614 -0.033199567 -0.08291628 0.09060453
000310 6b 47 76 3e 58 d9 0f be 68 a1 f8 bc 04 c2 10 bd
       0.24050681 -0.14047754 -0.030350402 -0.035341278
000320 35 ba b9 3d c0 d5 f6 bd 6b 04 92 bd 28 55 10 3e
       0.09068719 -0.12052488 -0.07129749 0.14094985
000330 de a6 8c bd 5b 3b 28 be b1 81 ec bd 22 72 af bd
       -0.06867765 -0.16428892 -0.11548174 -0.08566691
000340 fd ab 80 be 1f cf c9 bc 16 1f 25 bc 76 03 be bd
       -0.25131217 -0.024634896 -0.010078212 -0.09278004
000350 bb 8c e4 bd 7d 76 0c be 12 f6 0c 3e 41 e5 8e bd
       -0.11159655 -0.13717075 0.13765743 -0.069773205
000360 b4 76 be 3d 3f 3f 7a 3d 99 d0 81 3d c0 d2 86 3e
       0.092999846 0.061095472 0.06338615 0.26332664
000370 dd a7 ca bc 30 f1 48 3d 38 4d fa 3d e2 ac 51 be
       -0.024738247 0.04905814 0.122217596 -0.20476106
000380 42 2e 1a 3e fa f1 95 be 39 ae a2 3d 74 47 e2 bd
       0.15056708 -0.29286176 0.079433866 -0.11048785
000390 94 2a 8b be 0c 05 3f 3e 3a 45 b4 3d ac 4e 5c bd
       -0.27180922 0.18654269 0.088022664 -0.053785965
0003a0 d9 6e 28 bd 4f 41 43 3d ad a5 f0 3d 18 c5 c0 bb
       -0.041121338 0.047669705 0.1175035 -0.0058828704
0003b0 74 79 db 3c 8d a0 3e be bc ec 80 bd 0e 21 76 3e
       0.026791312 -0.18615933 -0.062951535 0.24036047
0003c0 4a d6 31 3d 3c 1d 5d 3e f1 a7 40 3d 4f 27 41 bd
       0.043417253 0.21593183 0.04703516 -0.04715663
0003d0 26 3d 17 3e f7 81 2f bd 3d 4e be 3e 68 ce ee 3c
       0.1476942 -0.042848554 0.37169066 0.029151157
0003e0 e5 35 90 3e 5b 83 18 3d 25 6c 63 3e 3b e7 85 3c
       0.28166118 0.037234645 0.22209223 0.01634561
0003f0 66 a8 97 3c e7 8d a3 bd 1a 60 31 3e bb 80 13 be
       0.018512916 -0.0798605 0.17321816 -0.14404576
